machineLearning/kerasModelUpdated2.tflite (tflite, 14680 bytes, 5 tensors)

sequential_13/dense_39/BiasAdd/ReadVariableOp f4 [32]
0	0x00000000	0.0
1	0xb8f0d35c	-0.000114834605
2	0xbba79fed	-0.0051155
3	0x00000000	0.0
4	0xb9faf94a	-0.0004786945
5	0xbbf2ab19	-0.0074056503
6	0x00000000	0.0
7	0xba0d4b8b	-0.000538998
8	0xbba785e4	-0.0051123966
9	0xb9e50618	-0.00043682824
10	0x00000000	0.0
11	0x397db6ea	0.00024196101
12	0xba426716	-0.00074158737
13	0x00000000	0.0
14	0x00000000	0.0
15	0x00000000	0.0
16	0xbb308a01	-0.0026937725
17	0x00000000	0.0
18	0xb9d83fcd	-0.00041246266
19	0x00000000	0.0
20	0x398ec915	0.00027234168
21	0x3982ec90	0.00024971785
22	0xb9dc60a0	-0.0004203366
23	0x00000000	0.0
24	0x00000000	0.0
25	0x00000000	0.0
26	0xb9fda366	-0.00048377662
27	0xb9db1931	-0.00041789704
28	0x00000000	0.0
29	0xba1f65e4	-0.00060805515
30	0x3bf2e9a2	0.007413105
31	0x398ea05b	0.00027203825

sequential_13/dense_38/BiasAdd/ReadVariableOp f4 [64]
0	0x00000000	0.0
1	0x3bf14a6b	0.0073636076
2	0x3a8d8c94	0.0010799342
3	0xbb045cd6	-0.0020196936
4	0xbba3eb7e	-0.005002438
5	0x00000000	0.0
6	0x00000000	0.0
7	0x3ac0185d	0.0014655698
8	0xbbc1f833	-0.00591948
9	0x00000000	0.0
10	0x00000000	0.0
11	0x3c038c27	0.00802902
12	0x00000000	0.0
13	0x00000000	0.0
14	0x00000000	0.0
15	0x3ae52ad5	0.0017484078
16	0x00000000	0.0
17	0xbc1cbdc4	-0.009566728
18	0x00000000	0.0
19	0xbc10fc2e	-0.008849187
20	0x00000000	0.0
21	0xbb8d5725	-0.004313367
22	0x00000000	0.0
23	0x39b36461	0.0003421633
24	0x00000000	0.0
25	0xbae26044	-0.0017271121
26	0xbc181a43	-0.009283605
27	0x00000000	0.0
28	0xbad09b73	-0.0015915468
29	0x3b12e482	0.0022414033
30	0x3a6d951f	0.00090630533
31	0x00000000	0.0
32	0xbbb062ba	-0.005382863
33	0x38a1ff9e	7.724691e-05
34	0xb9f9c62a	-0.00047640625
35	0xb8f9ef27	-0.00011917791
36	0x00000000	0.0
37	0x00000000	0.0
38	0x398548ec	0.00025422068
39	0x00000000	0.0
40	0x3b7dc76e	0.0038723606
41	0x00000000	0.0
42	0x00000000	0.0
43	0x00000000	0.0
44	0xba4309aa	-0.00074401
45	0xbc16448e	-0.009171618
46	0x00000000	0.0
47	0x3be29202	0.006914378
48	0xbc7766a4	-0.015100155
49	0x3bc3147d	0.00595337
50	0x3a97832e	0.001155948
51	0xbbcca9e2	-0.0062458375
52	0x3b9e8561	0.0048376773
53	0x3b2b4abb	0.0026137072
54	0xbbbb2ddd	-0.0057122544
55	0x00000000	0.0
56	0xba85ea9e	-0.0010217016
57	0x00000000	0.0
58	0x00000000	0.0
59	0x00000000	0.0
60	0xba31bc61	-0.0006780085
61	0x00000000	0.0
62	0xbc414404	-0.011796001
63	0xbaf5728e	-0.0018726157

sequential_13/dense_38/MatMul f4 [64, 15]
0	0xbe664b52	-0.2248967
1	0xbb38bb00	-0.0028187633
2	0x3e0bc6e0	0.13650084
3	0xbe4fccf8	-0.20293033
4	0xbe389ce7	-0.18028603
5	0xbe5edf4a	-0.21764866
6	0xbd916e5e	-0.07101129
7	0xbe313bb8	-0.17307937
8	0x3d346170	0.044038236
9	0xbddfe8ec	-0.10933098
10	0x3e747176	0.23871407
11	0x3b0f0700	0.002182424
12	0x3e2a60aa	0.16638437
13	0xbe47398b	-0.19455545
14	0x3c8342c0	0.01602304
15	0x3e42b346	0.190137
16	0xbe4b7bd2	-0.19871452
17	0xbe6c22f2	-0.23060206
18	0xbd12d97f	-0.03585195
19	0xbe3cfe06	-0.18456277
20	0x3d952b78	0.07283682
21	0x3e743912	0.23849896
22	0x3dfe535d	0.12418244
23	0x3e5600d8	0.2089876
24	0xbe06d737	-0.13168035
25	0x3e78cdc1	0.24297239
26	0x3e40444c	0.18776053
27	0xbe5799ba	-0.21054736
28	0x3e3287ee	0.17434666
29	0xbd5299b2	-0.051416107
30	0x3e3c9736	0.18417057
31	0xbd3fb40f	-0.046802577
32	0x3b4688e3	0.0030293993
33	0xbd87e9c0	-0.06636381
34	0x3e1fbd72	0.15599611
35	0xbe351f3c	-0.17687696
36	0xbe802b73	-0.2503315
37	0xbe162430	-0.14662242
38	0xbd8fd427	-0.07022887
39	0xbd776c87	-0.060406234
40	0xbdedf067	-0.11618119
41	0x3ded8403	0.11597445
42	0x3e2294ad	0.15877028
43	0xbdce3061	-0.10067821
44	0xbe84eae6	-0.25960463
45	0x3dd0fcfd	0.10204504
46	0xbe512957	-0.20425926
47	0x3e69904b	0.2280895
48	0xbe21434d	-0.1574833
49	0x3d9a8cc2	0.07546379
50	0xbc14dfcb	-0.0090865595
51	0x3e7641f4	0.24048597
52	0xbd9b55a7	-0.07584696
53	0x3e21c2d7	0.15796982
54	0x3dc27c58	0.09496373
55	0xbe257bf3	-0.16160564
56	0x3e712aeb	0.23551528
57	0x3a31605e	0.0006766374
58	0xbe33192a	-0.17490068
59	0x3e2cdf7b	0.16882126
60	0xbbb7d9d2	-0.005610683
61	0x3c79e787	0.015252954
62	0xbc850d64	-0.016241737
63	0xbdf44103	-0.119264625
64	0x3d8bb073	0.068207644
65	0xbe2bbbb0	-0.16770816
66	0x3e78ade4	0.24285084
67	0xbd0cbf5f	-0.034362193
68	0xbd29f1f3	-0.041490506
69	0x3e21ca61	0.15799858
70	0x3e7ecbb5	0.24882396
71	0xbc9279dd	-0.017880375
72	0x3d902f37	0.070402555
73	0xbe3c0693	-0.18361883
74	0x3e7c55c8	0.24642098
75	0xbe7c3218	-0.24628484
76	0x3cb11b20	0.02161938
77	0xbe4fd8aa	-0.20297495
78	0xbdc0e506	-0.09418683
79	0x3e5b9e1e	0.21447036
80	0xbdeeeffa	-0.11666866
81	0x3e3f972a	0.18710008
82	0xbdd8fe9c	-0.10595438
83	0x3e244f30	0.16045833
84	0x3e3be150	0.18347669
85	0xbd7b363c	-0.06133102
86	0xbdc2821a	-0.09497471
87	0xbe523e32	-0.20531538
88	0xbe1a6ab2	-0.15079764
89	0xbd9bb0e8	-0.076021016
90	0xbe43d440	-0.19123936
91	0xbe6ea24f	-0.23304103
92	0xbe8542a1	-0.26027396
93	0x3e254c7c	0.16142458
94	0xb9730000	-0.00023174286
95	0x3e51a47c	0.20472902
96	0x3e33d222	0.17560628
97	0x3ba33dc0	0.0049817264
98	0x3e369392	0.17829731
99	0x3e71c1be	0.23609063
100	0x3d9d7454	0.076882035
101	0xbe48b6c4	-0.1960097
102	0xbe554d02	-0.20830157
103	0x3e7d80f6	0.24756226
104	0xbe6e7526	-0.23286876
105	0x3d602f88	0.05473283
106	0xbe0af3c7	-0.13569556
107	0x3e162749	0.14663424
108	0x3e0e0624	0.1386953
109	0x3d9fc0a5	0.07800416
110	0xbdb4f2e9	-0.08835394
111	0xbd8bd2a7	-0.06827288
112	0x3d70d26f	0.058794435
113	0x3da6d9fa	0.081470445
114	0x3bd2ebb6	0.0064367903
115	0x3e2c63f1	0.16835
116	0xbc97fce6	-0.018553209
117	0xbd96e307	-0.07367521
118	0x3d3326c7	0.043738153
119	0xbe5e8c35	-0.21733172
120	0xbe554730	-0.20827937
121	0x3dc5079a	0.096205905
122	0x3e667b67	0.22508012
123	0x3d9b8bdd	0.07595036
124	0x3dd95159	0.10611219
125	0xbe329871	-0.17440964
126	0x3c183eae	0.009292288
127	0xbd84e9e8	-0.064899266
128	0xbe2bfcc3	-0.1679564
129	0x3c99a3af	0.018754808
130	0xbe4ddd92	-0.20104054
131	0x3e32520b	0.1741411
132	0xbe33288f	-0.1749594
133	0x3e29c506	0.16579065
134	0x3e481c63	0.19542079
135	0xbe8be525	-0.2732326
136	0x3e7534d2	0.2394593
137	0x3e709eae	0.23498031
138	0xbe6f7cf4	-0.2338751
139	0xbc3daca0	-0.011576802
140	0x3e112d8e	0.14177534
141	0x3d85e730	0.06538236
142	0x3d5138a0	0.051079392
143	0xbc932e90	-0.017966539
144	0xbe29829c	-0.1655373
145	0xbdb42232	-0.08795585
146	0xbe1d4003	-0.1535645
147	0xbdf63fea	-0.120239094
148	0x3e80faf7	0.2519147
149	0xbdd35924	-0.103197366
150	0xbb9832c0	-0.0046447217
151	0xbddf7984	-0.10911849
152	0xbe62a612	-0.22133663
153	0xbe052c7a	-0.13005248
154	0xbca3d720	-0.02000004
155	0xbe490969	-0.19632496
156	0xbe82f912	-0.2558065
157	0xbe2ba938	-0.1676377
158	0xbe1e98d8	-0.15487993
159	0xba858800	-0.0010187626
160	0x3e5a1b3c	0.21299452
161	0xbdb1583e	-0.08659409
162	0x3e32a098	0.17444074
163	0x3e0b8f60	0.13628912
164	0x3e80e0bd	0.25171462
165	0xbb205b7b	-0.002446859
166	0x3c687f54	0.014190514
167	0xbe84a110	-0.2590413
168	0x3e559c5f	0.20860432
169	0xbdc8e325	-0.098089494
170	0x3ce7f98d	0.028317237
171	0xbdf2d68e	-0.11857329
172	0x3e4adf47	0.19811736
173	0xbe18432a	-0.14869371
174	0x3d91e6f0	0.07124126
175	0x3e1d4547	0.15358458
176	0x3ce80af9	0.028325545
177	0xbe125b24	-0.1429258
178	0xbdd7bc59	-0.10533971
179	0xbdb92c30	-0.09041631
180	0xbe87932e	-0.26479477
181	0xbe78f789	-0.24313177
182	0x3dec657c	0.11542794
183	0xbd195ea4	-0.037443772
184	0xbe235e9e	-0.15954062
185	0xbd01bd84	-0.031674877
186	0xbe1de750	-0.1542027
187	0x3931a000	0.0001693964
188	0x3e7675fa	0.24068442
189	0xbdf2831a	-0.11841412
190	0x3df4ef84	0.119597465
191	0xbd2c5c60	-0.042080283
192	0xbd9d00e2	-0.07666184
193	0x3e346248	0.17615616
194	0xbc87cba0	-0.016576588
195	0xbcc69cb0	-0.024244636
196	0xbdf20b88	-0.11818606
197	0x3de1d870	0.1102761
198	0x3e76410e	0.24048254
199	0xbe081fcc	-0.1329338
200	0xbe554a26	-0.20829067
201	0xbdf48252	-0.11938919
202	0xbd65be70	-0.05608982
203	0x3b868000	0.0041046143
204	0x3e5bed0a	0.21477142
205	0x3df05784	0.11735442
206	0x3d89de64	0.06731871
207	0xbb5e9080	-0.003396064
208	0xbdc53a7a	-0.09630294
209	0x3e733b6e	0.2375314
210	0x3dd14ce8	0.10219747
211	0xbe032ad5	-0.12809308
212	0xbe864aa7	-0.2622883
213	0xbe830d39	-0.25596026
214	0xbd5a9c80	-0.053371906
215	0x3ba19280	0.0049307942
216	0x3d953c20	0.072868586
217	0x3e3b664c	0.18300742
218	0xbdd8d1dc	-0.105869025
219	0xbe7026ca	-0.23452297
220	0xbc2e5ac0	-0.010641754
221	0xbc2f3d80	-0.010695815
222	0x3e0c1cca	0.13682857
223	0xbe198471	-0.14991929
224	0x3c349a80	0.011023164
225	0x3ba1b1fd	0.004934548
226	0x3e0ab423	0.13545279
227	0xbd59042c	-0.052982494
228	0xbdbbce4a	-0.09170206
229	0xbdfc170b	-0.123090826
230	0xbdd298e9	-0.102830715
231	0x3e540581	0.20705225
232	0x3e299001	0.1655884
233	0xbe762ed8	-0.24041307
234	0x3c09b2d4	0.008404452
235	0x3e281221	0.16413166
236	0x3e1a2bc5	0.15055759
237	0xbe679744	-0.22616297
238	0xbe2383d1	-0.15968253
239	0x3e5ad9d3	0.21372156
240	0xbe60f462	-0.21968225
241	0xbe11a263	-0.14222102
242	0x3dd3fdd0	0.10351145
243	0xbe37bf4b	-0.17944066
244	0xbdcab1ec	-0.09897217
245	0xbd441998	-0.04787597
246	0xbe180288	-0.14844716
247	0xbdbdfcc4	-0.09276727
248	0x3d6db940	0.058037996
249	0x3cbe5560	0.02323407
250	0xbe551c44	-0.20811564
251	0x3e6b15d6	0.22957548
252	0x3e24b306	0.16083917
253	0x3e37901e	0.1792607
254	0x3e0943ae	0.13404724
255	0xbd90a85e	-0.070633635

sequential_13/dense_39/MatMul f4 [32, 64]
0	0x3e3d4054	0.1848157
1	0x3d64a310	0.05581957
2	0x3da38b38	0.07985538
3	0x3e6a6308	0.2288934
4	0x3cb38520	0.021914065
5	0x3e3a6144	0.18201166
6	0x3d165600	0.03670311
7	0xbc95f2c0	-0.018304229
8	0x3e34d958	0.17661035
9	0x3da90210	0.082523465
10	0x3c06c8c0	0.0082265735
11	0xbc8470a0	-0.016166985
12	0x3e43c89c	0.19119495
13	0x3d7b6f10	0.061385214
14	0x3e33dd9c	0.17565006
15	0x3dfdc070	0.1239022
16	0xbe7470a0	-0.23871088
17	0xbd08dc50	-0.03341323
18	0xbe211ee0	-0.15734434
19	0xbe392c44	-0.18083292
20	0x3e75d7ac	0.24008054
21	0x3dab5690	0.0836612
22	0x3e271ab0	0.16318774
23	0xbd772270	-0.060335577
24	0xbe6e097c	-0.23245806
25	0xbd9e66e8	-0.077344716
26	0xbe3f86dc	-0.18703789
27	0x3d899fa8	0.06719905
28	0x3da08fe0	0.07839942
29	0xbe251028	-0.16119444
30	0xbe6fd02c	-0.23419255
31	0xbe32fc4c	-0.17479056
32	0x3e6c9c04	0.2310639
33	0x3e4285c8	0.18996346
34	0xbe250a24	-0.1611715
35	0xbc647ec0	-0.013946235
36	0x3d4b67a0	0.04965937
37	0x3dac54f8	0.08414644
38	0xbe565d1c	-0.20933956
39	0xbc9142c0	-0.017732024
40	0x3e49f794	0.1972335
41	0xbe43bdd8	-0.19115388
42	0xbd1b1750	-0.03786403
43	0xbe2fae28	-0.17156279
44	0xbd8497c0	-0.064742565
45	0x3e01544c	0.12629813
46	0xbe3efc5c	-0.18650955
47	0xbe038050	-0.12841916
48	0xbda4f940	-0.08055353
49	0x3de43620	0.11143136
50	0x3e63a318	0.22230184
51	0x3e4e5434	0.20149308
52	0x3dceb970	0.10093963
53	0xbe45ed28	-0.19328749
54	0x3c351fc0	0.011054933
55	0xbd43cc80	-0.04780245
56	0x3bb79e80	0.0056036115
57	0x3da13fe8	0.07873517
58	0xbd494260	-0.049135566
59	0x3e3fa2ec	0.18714494
60	0x3dc5cf80	0.09658718
61	0xbcfdbf20	-0.030974925
62	0xbe1509fc	-0.1455459
63	0xbe622d10	-0.22087502
64	0xbdd7b668	-0.10532838
65	0x3e61204b	0.21984975
66	0xbd6fc38c	-0.058536097
67	0x3d6077c6	0.054801725
68	0x3ab04e35	0.0013451042
69	0x3e0c526c	0.13703316
70	0xbe388b84	-0.18021971
71	0x3e007648	0.1254512
72	0xbe3bf45f	-0.18354939
73	0xbdf4bdb8	-0.119502485
74	0x3ce97ac0	0.028500915
75	0x3c0a9c7f	0.008460163
76	0x3dd97328	0.106176674
77	0xbe2b2fcc	-0.16717452
78	0xbe5dbd14	-0.21654159
79	0x3e27e3e7	0.16395532
80	0xbc371340	-0.011174023
81	0x3dd2e131	0.10296858
82	0xbe3ade94	-0.1824897
83	0xbce42773	-0.027850842
84	0x3e7028a8	0.23453009
85	0x3c61a38e	0.013771905
86	0xbb589000	-0.0033044815
87	0xbb0e882c	-0.0021748645
88	0x3e601588	0.21883214
89	0xbe10f948	-0.14157593
90	0x3d63b724	0.05559458
91	0xbdf383a0	-0.1189034
92	0x3e763657	0.24044167
93	0x3dae72be	0.08517979
94	0x3e5b9253	0.21442537
95	0x3bbb2180	0.0057107806
96	0xbd862e95	-0.065518536
97	0xbe71ef97	-0.23626553
98	0x3d43abad	0.047771145
99	0x3d3c1540	0.045918703
100	0x3dd2b2b8	0.10287994
101	0x3e0c0340	0.13673115
102	0xbe36e394	-0.17860252
103	0xbd2ddc60	-0.042446494
104	0x3dae4446	0.08509116
105	0x3e47f738	0.195279
106	0x3e1e694c	0.15469855
107	0x3e1a1ccc	0.15050048
108	0xbd9c90b5	-0.07644788
109	0xbdf3eea3	-0.11910751
110	0xbc445740	-0.011983693
111	0x3d8670ef	0.06564509
112	0xbd142811	-0.036171023
113	0xbda34909	-0.07972915
114	0x3e455490	0.1927054
115	0xbc5c16ec	-0.013433199
116	0xbb8f0559	-0.004364651
117	0x3e0d8a53	0.13822298
118	0x3e13abad	0.14420958
119	0x3c456a80	0.012049317
120	0xbdc1e8dd	-0.09468243
121	0x3ad47a00	0.0016210675
122	0x3e55f138	0.20892799
123	0x3e57f4f0	0.2108953
124	0x3e0f0cfc	0.13969797
125	0xbe15d3e8	-0.14631617
126	0x3e4603ca	0.19337383
127	0xbe5f84b9	-0.21827973
128	0xbd33e720	-0.04392159
129	0xbe5ba86a	-0.21450964
130	0x3dd1ce07	0.10244375
131	0x3d3a1916	0.04543408
132	0xbadcadaf	-0.001683643
133	0xbe555c8c	-0.20836085
134	0x3e663c1c	0.22483867
135	0xbe0bf516	-0.13667712
136	0xbd064ff0	-0.032791078
137	0x3dd4ef30	0.10397184
138	0x3e18bacc	0.14915007
139	0x3e1f3120	0.15546083
140	0xbddd4f60	-0.10806155
141	0xbe17e7ac	-0.1483447
142	0xbc8485a0	-0.016176999
143	0x3e715f12	0.23571423
144	0xbe4ccb9c	-0.19999546
145	0x3e110242	0.14161018
146	0x3cd3cdc0	0.025854945
147	0x3e3357a6	0.17513904
148	0x3e1ab844	0.15109354
149	0x3dafc78e	0.08582984
150	0xbe62ebcc	-0.22160262
151	0x3dc3368a	0.09531887
152	0x3d1962c0	0.03744769
153	0xbe79c57a	-0.24391738
154	0xbdb41f4a	-0.087950304
155	0xbe1213c8	-0.14265358
156	0x3e189eca	0.14904323
157	0x3b4db952	0.0031390977
158	0xbe2bb156	-0.16766867
159	0x3e1eff88	0.15527165
160	0xbe4105d6	-0.18849882
161	0xbd39fbfb	-0.045406323
162	0xbe3ad659	-0.1824583
163	0xbde96bfe	-0.11397551
164	0xbd893788	-0.06700045
165	0xbe7242e0	-0.23658323
166	0x3dea0e36	0.11428492
167	0x3e4d5da4	0.20055252
168	0xbd863ea8	-0.065549195
169	0x3df10560	0.11768603
170	0xbd4dddd0	-0.050260365
171	0xbe59c2cc	-0.21265715
172	0x3d4c11d3	0.049821686
173	0xbe3763a6	-0.17909107
174	0xbe050550	-0.12990308
175	0x3dd66b02	0.10469629
176	0x3e2b6489	0.1673757
177	0xbd609e2e	-0.054838352
178	0xbe167ebf	-0.14696787
179	0xbc8b3220	-0.016991675
180	0x3e2c0076	0.16797051
181	0x3d508e23	0.050916802
182	0xbe7e5f92	-0.24841145
183	0xbe6196f8	-0.22030246
184	0x3c652b99	0.013987445
185	0x3e3fa6a8	0.18715918
186	0xbdbb8be8	-0.091575444
187	0x3e3b8480	0.18312263
188	0x3e5b509e	0.21417472
189	0x3e5eceb4	0.21758538
190	0xbddbb7e3	-0.10728433
191	0xbd990342	-0.074713245
192	0xbd77fb80	-0.060542583
193	0xbe05946c	-0.130449
194	0xbcd94d20	-0.026526034
195	0xbe7c738c	-0.24653453
196	0xbd729340	-0.05922246
197	0x3d83da90	0.06438172
198	0xbe4e49ec	-0.20145386
199	0x3e572244	0.21009165
200	0x3c8c5040	0.01712811
201	0xbe40f690	-0.18844056
202	0x3e71edc4	0.23625857
203	0xbd81b878	-0.06334013
204	0x3cd8fac0	0.026486754
205	0xbe291960	-0.16513586
206	0x3d1ee480	0.038792133
207	0xbdcbac98	-0.09945029
208	0x3d13bb00	0.03606701
209	0xbd6951e0	-0.056962848
210	0xbe416930	-0.18887782
211	0x3e01a2c0	0.1265974
212	0x3db1b7a0	0.08677602
213	0xbe2bb4c0	-0.1676817
214	0x3dc01c30	0.09380376
215	0x3e25a364	0.1617561
216	0x3e7ab474	0.244829
217	0xbe6c80c8	-0.23096001
218	0xbe4cbf78	-0.19994915
219	0xbd7d5b40	-0.0618546
220	0xbe2f76fc	-0.17135233
221	0xbe653f64	-0.22387463
222	0xbdd994c8	-0.10624081
223	0xbda05ed8	-0.0783059
224	0x3e53e760	0.20693731
225	0xbdfa34e0	-0.12217116
226	0x3e2f313c	0.17108625
227	0x3e744388	0.23853886
228	0x3e7ecc00	0.24882507
229	0xbe45b420	-0.19306993
230	0xbde783e8	-0.11304456
231	0x3de29378	0.11063284
232	0xbe1cab08	-0.15299618
233	0xbe429474	-0.19001943
234	0xbd4db9a0	-0.050225854
235	0xbcb7da80	-0.022443056
236	0x3d1c69b0	0.03818673
237	0xbda04a00	-0.078266144
238	0x3e5749e4	0.21024281
239	0xbe2638fc	-0.16232675
240	0x3de584d8	0.112069786
241	0xbd93a348	-0.07208878
242	0x3e33a418	0.17543066
243	0x3e2e1178	0.16998851
244	0xbe7710d4	-0.24127513
245	0x3ca05fa0	0.019576848
246	0x3e44cb98	0.1921829
247	0x3e61f700	0.2206688
248	0x3e0261fc	0.1273269
249	0x3e606930	0.21915126
250	0x3d861430	0.06546819
251	0xbc285640	-0.01027447
252	0xbd379130	-0.044816196
253	0x3e31a19c	0.17346805
254	0xbded8658	-0.1159789
255	0xbcd16320	-0.025559962

sequential_13/dense_40/MatMul f4 [1, 32]
0	0xbec66f6a	-0.38756877
1	0x3d5e27e5	0.054237265
2	0x3ebe7e35	0.37205663
3	0xbecc1a76	-0.39863938
4	0xbe37ae3a	-0.17937556
5	0x3ec8b948	0.39203858
6	0xbda9cbbc	-0.082908124
7	0xbe1b3ea5	-0.15160616
8	0x3e981ce5	0.29709545
9	0xbe9b9d0c	-0.30393255
10	0xbed972ca	-0.4247039
11	0x3e8dbc1c	0.2768258
12	0xbd8b72be	-0.06808995
13	0x3df6bf10	0.12048161
14	0xbdee0ea0	-0.11623883
15	0xbe097ab8	-0.1342572
16	0xbcb41803	-0.021984106
17	0x3ed51858	0.41620135
18	0xbed33ed2	-0.41258866
19	0xbe3ab0c0	-0.18231487
20	0x3eafb3b0	0.34316778
21	0x3e7f14ce	0.2491028
22	0xbec2071e	-0.37896055
23	0xbd61a948	-0.05509308
24	0x3e8d5f5a	0.2761181
25	0x3de91450	0.113808274
26	0xbe454b39	-0.19266976
27	0xbeb3a9d6	-0.35090512
28	0x3e0a0938	0.13480079
29	0xbe013064	-0.12616116
30	0x3ed7003c	0.41992366
31	0x3ea944db	0.33060345
