machineLearning/kerasModelUpdated1.tflite (tflite, 43556 bytes, 5 tensors)

sequential_2/dense_7/BiasAdd/ReadVariableOp f4 [64]
0.0030462577 0.003091749 0.0 0.0031093168 0.0 -0.003301424 -0.0032607112 0.0
0.0 -0.003170039 0.0 0.0031056777 0.0 0.0 0.0030832877 0.0030466903
-0.0031669198 -0.0031658069 0.0 0.0028931764 0.003010979 0.0030874826 -0.007866243 0.0
0.0 -0.0031612397 0.0 -0.0031729143 0.0 0.0032195307 0.002561691 -0.007307797
0.0 -0.004755374 0.0 0.0 0.0031074805 0.0 0.0 0.0
-0.0053030467 0.0 0.0030785934 0.0 0.0030768448 -0.0033422336 -0.00899626 0.0012892588
0.0 0.0 0.0 -0.0030978739 0.0 0.0 0.0 0.0
0.0 0.0 -0.0031627677 0.0 0.0 0.0031066027 -0.008937256 0.0
00000000: b9a3 473b f19e 4a3b 0000 0000 aec5 4b3b
00000010: 0000 0000 b45c 58bb a8b1 55bb 0000 0000
00000020: 0000 0000 6ec0 4fbb 0000 0000 a088 4b3b
00000030: 0000 0000 0000 0000 fc10 4a3b fbaa 473b
00000040: 198c 4fbb 6d79 4fbb 0000 0000 729b 3d3b
00000050: d853 453b 5d57 4a3b 6ae1 00bc 0000 0000
00000060: 0000 0000 cd2c 4fbb 0000 0000 abf0 4fbb
00000070: 0000 0000 c3fe 523b 0be2 273b 3f76 efbb
00000080: 0000 0000 f8d2 9bbb 0000 0000 0000 0000
00000090: dfa6 4b3b 0000 0000 0000 0000 0000 0000
000000a0: 2ec5 adbb 0000 0000 3ac2 493b 0000 0000
000000b0: e4a4 493b 6009 5bbb 0d65 13bc 59fc a83a
000000c0: 0000 0000 0000 0000 0000 0000 b305 4bbb
000000d0: 0000 0000 0000 0000 0000 0000 0000 0000
000000e0: 0000 0000 0000 0000 7046 4fbb 0000 0000
000000f0: 0000 0000 2598 4b3b 926d 12bc 0000 0000

sequential_2/dense_6/BiasAdd/ReadVariableOp f4 [128]
-0.0036041453 0.0022753822 -0.005112325 0.0 0.0017790793 -0.0047098063 -0.0015664104 -0.0022884598
-0.0011780435 0.00017436285 -0.0024411934 0.0 0.0 0.007607737 0.0027359747 0.0
0.0015599327 0.0019611414 0.006847285 0.0024382756 0.0 0.0038950304 0.0018792987 0.0
0.0 0.0026047532 -0.008803382 -0.003726286 0.001540326 0.0 -0.007525628 -0.0037033574
-0.006488013 0.0 -0.005874318 0.0039704638 0.0065052947 -0.005986254 0.006385622 -0.005259432
-0.006818189 0.0029202641 0.0 0.0 0.004922499 0.0039670477 -0.0042220573 0.0
0.0 -0.007260324 0.0071690837 -0.00055010605 -0.0033281625 -0.0073454194 0.0 0.0039992584
-0.0039584404 0.00832699 -0.0041841525 -0.0048704804 0.0 0.0 0.0048877937 0.0
0.0036956093 0.0 -0.0034608282 0.0 -0.00018540297 0.0 0.0 0.0
0.0038945246 0.0 0.0024432065 0.0 -0.0065949922 0.0 0.0054355883 -0.0041979756
0.006211981 0.0013947409 0.00089104054 -0.0076223053 -0.004801122 0.0 0.0 0.0
0.0029037017 0.0 0.0 0.0 0.0009216488 0.0 0.0023138074 0.0
-0.0011175406 0.0 0.001849731 0.0031241716 0.0 0.0 -0.0019336237 -0.0028845852
0.002748088 0.0 -0.0021995013 0.0069720717 0.0 -0.0045212344 0.0019056862 0.0053591975
0.0 0.0 0.0 -0.0010810335 0.0037291863 -0.0043768743 0.0 -0.008617788
0.0 0.001445994 0.0 0.0018822366 -0.0042000045 0.0 0.00026232266 0.0
00000000: 8633 6cbb 941e 153b 4a85 a7bb 0000 0000
00000010: ff2f e93a b854 9abb 0350 cdba fcf9 15bb
00000020: 9568 9aba 2cd5 3639 6efc 1fbb 0000 0000
00000030: 0000 0000 534a f93b 0a4e 333b 0000 0000
00000040: a876 cc3a 7e86 003b 315f e03b 7acb 1f3b
00000050: 0000 0000 c443 7f3b cd52 f63a 0000 0000
00000060: 0000 0000 82b4 2a3b 0f3c 10bc b534 74bb
00000070: c4e4 c93a 0000 0000 8b99 f6bb 07b4 72bb
00000080: 6699 d4bb 0000 0000 5a7d c0bb aa1a 823b
00000090: 5e2a d53b 5728 c4bb 7b3e d13b 5057 acbb
000000a0: 1d6b dfbb e761 3f3b 0000 0000 0000 0000
000000b0: ea4c a13b 02fe 813b 2f59 8abb 0000 0000
000000c0: 0000 0000 03e8 edbb a2ea ea3b fe34 10ba
000000d0: 4d1d 5abb d8b1 f0bb 0000 0000 360c 833b
000000e0: ceb5 81bb ed6d 083c 371b 89bb 8d98 9fbb
000000f0: 0000 0000 0000 0000 c929 a03b 0000 0000
00000100: 0932 723b 0000 0000 10cf 62bb 0000 0000
00000110: bb68 42b9 0000 0000 0000 0000 0000 0000
00000120: 483b 7f3b 0000 0000 341e 203b 0000 0000
00000130: ce1a d8bb 0000 0000 051d b23b 2c8f 89bb
00000140: e08d cb3b bdcf b63a b894 693a 88c4 f9bb
00000150: bb52 9dbb 0000 0000 0000 0000 0000 0000
00000160: 084c 3e3b 0000 0000 0000 0000 0000 0000
00000170: ce9a 713a 0000 0000 3fa3 173b 0000 0000
00000180: 717a 92ba 0000 0000 ac72 f23a e7be 4c3b
00000190: 0000 0000 0000 0000 a571 fdba 4f0b 3dbb
000001a0: 4419 343b 0000 0000 8225 10bb fa75 e43b
000001b0: 0000 0000 dd26 94bb 38c8 f93a 359c af3b
000001c0: 0000 0000 0000 0000 0000 0000 77b1 8dba
000001d0: 5d65 743b e26b 8fbb 0000 0000 9f31 0dbc
000001e0: 0000 0000 8287 bd3a 0000 0000 61b5 f63a
000001f0: 31a0 89bb 0000 0000 5a88 8939 0000 0000

sequential_2/dense_6/MatMul f4 [128, 15]
0.15811755 0.1123304 -0.20522454 -0.18172497 0.020450184 -0.15938887 -0.2005822 -0.1870027
0.13016003 0.19073172 -0.102158956 0.18893936 0.036524363 0.05114819 0.1543998 -0.00062252796
-0.026434034 0.12809536 0.17972535 -0.13128239 0.08263818 0.17528509 -0.062435582 -0.17219016
-0.16935118 -0.025112452 -0.050865155 -0.11687014 -0.082982905 0.087500066 0.12247298 0.03908706
0.12204439 -0.06422816 0.10795173 -0.16915847 -0.10833779 -0.04572892 0.010576811 -0.16261987
0.11095509 -0.1380564 0.101219624 -0.051293246 0.08609299 0.16306625 -0.1386329 0.00922738
-0.18724896 0.0513023 -0.18077153 -0.19009918 -0.07303664 0.09690659 0.001113236 0.029139295
-0.14032412 -0.19790633 -0.20140657 0.03871718 0.05163013 0.11681862 -0.13929231 0.07918219
0.0031745152 -0.010325097 -0.16961598 -0.14715442 -0.0153483115 -0.1586721 0.025640724 0.054258224
-0.17548239 -0.16023596 -0.14318882 0.07082532 0.13547854 0.1422225 0.108407855 0.15389307
0.09082369 0.16576375 0.1409962 0.15030096 0.07184669 0.15742357 -0.14353414 -0.13810867
-0.060229246 -0.034301687 -0.0038498058 -0.029589767 -0.055354413 0.009031452 0.10255949 -0.15863143
0.12852979 0.13067628 0.100972235 -0.08635388 0.10914799 0.03477179 -0.02214927 -0.12552063
-0.17969367 0.058085404 0.1887812 0.1881714 0.08692805 -0.034808908 -0.025747944 -0.12803622
0.06853789 -0.10820595 -0.14461915 -0.04618208 0.13455796 -0.19700333 -0.1348368 -0.028745107
0.13155022 0.20050572 0.10490265 0.1701409 -0.19643432 0.026921391 0.12685402 0.18692252
0.18478389 -0.08592515 0.08983303 0.14699335 0.05193233 -0.08092788 -0.04486082 0.096704945
0.17876148 0.0916814 -0.13049348 -0.09918558 0.1968607 0.0029453146 -0.173215 0.049371023
-0.095362954 0.040748425 0.065399066 0.1294913 0.13651946 -0.10762715 0.08637477 -0.11686508
-0.17411575 -0.003306768 0.13711485 -0.05049577 -0.04085202 -0.07357387 -0.20118436 -0.06855883
-0.13309923 -0.0039927484 -0.15753454 0.16437835 0.16639689 -0.18237816 0.14072613 -0.10540991
0.124191776 0.03635758 -0.15996048 0.040338323 0.1973295 0.08193253 0.07332249 -0.17715257
0.07834913 0.0145419985 -0.1517996 0.074273035 -0.09524794 -0.065857574 0.010050923 -0.01737298
-0.08327016 -0.103448525 0.10864116 0.02862142 -0.041774064 -0.14269622 0.11192568 0.040842652
0.0007184446 -0.13431883 0.014206842 0.07991481 0.039889596 -0.13376327 0.06906662 0.08617261
0.050522167 -0.037049145 0.104148425 0.066701524 -0.18000463 0.15317574 0.19174609 0.15032965
-0.031741906 0.0699674 0.03121217 0.1794238 0.17928426 -0.14493923 -0.15886083 0.0035464633
-0.18506412 0.017964246 -0.025399467 0.012949892 0.16810414 0.17191207 0.056863055 0.19661002
-0.06900597 -0.060400978 -0.0012463629 0.10191353 0.1616681 -0.10827634 -0.1958207 -0.1635222
-0.102333434 0.0702218 0.15098451 0.1270615 0.17526455 0.10544704 0.18865483 0.15219124
-0.0662019 0.11359539 -0.14964823 0.121773094 -0.10570489 0.19869459 -0.08591913 0.0779813
-0.14139163 -0.14520782 -0.06173938 0.11626464 -0.15862192 -0.17078449 -0.08363771 0.19505316
00000000: 91e9 213e 7b0d e63d 6226 52be 1c16 3abe
00000010: 2587 a73c d636 23be 6c65 4dbe a37d 3fbe
00000020: ac48 053e 2d4f 433e b738 d1bd 5279 413e
00000030: 929a 153d c480 513d fb1a 1e3e 2531 23ba
00000040: 308c d8bc 6e2b 033e ec09 383e e46e 06be
00000050: 353e a93d ef7d 333e 74bc 7fbd 9e52 30be
00000060: 656a 2dbe a1b8 cdbc fb57 50bd 9d59 efbd
00000070: f1f2 a9bd 3c33 b33d 1dd3 fa3d c119 203d
00000080: 69f2 f93d 0e8a 83bd cc15 dd3d e137 2dbe
00000090: 34e0 ddbd 3f4e 3bbd 5c4a 2d3c d385 26be
000000a0: 6c3c e33d a85e 0dbe 3c4c cf3d de18 52bd
000000b0: 8651 b03d d7fa 263e c8f5 0dbe 702e 173c
000000c0: 31be 3fbe 5c22 523d 2c1c 39be 5ca9 42be
000000d0: 3c94 95bd f676 c63d 00ea 913a 88b5 ee3c
000000e0: 20b1 0fbe f5a7 4abe 863d 4ebe e895 1e3d
000000f0: 1d7a 533d 9a3e ef3d a5a2 0ebe 462a a23d
00000100: 870b 503b 982a 29bc d0af 2dbe a6af 16be
00000110: 7c77 7bbc f07a 22be 7f0c d23c df3d 5e3d
00000120: a8b1 33be e514 24be 17a0 12be de0c 913d
00000130: e3ba 0a3e c6a2 113e f004 de3d 2596 1d3e
00000140: c501 ba3d f9bd 293e 4f61 103e 7fe8 193e
00000150: 5b24 933d a533 213e 9dfa 12be 5c6c 0dbe
00000160: f1b2 76bd ed7f 0cbd 064d 7cbb 3d66 f2bc
00000170: 4fbb 62bd a8f8 133c b60a d23d 4770 22be
00000180: 509d 033e 01d0 053e 88ca ce3d 4eda b0bd
00000190: fb88 df3d dd6c 0e3d 6372 b5bc 7b88 00be
000001a0: 9e01 38be f6ea 6d3d dc4f 413e 01b0 403e
000001b0: 5507 b23d c993 0ebd 5aed d2bc ed1b 03be
000001c0: 985d 8c3d 159b ddbd 0b17 14be 6c29 3dbd
000001d0: 90c9 093e 3ebb 49be a812 0abe dc7a ebbc
000001e0: 1ab5 063e 5f51 4d3e 33d7 d63d 6b39 2e3e
000001f0: 1426 49be 408a dc3c 05e6 013e 9e68 3f3e
00000200: fd37 3d3e 86f9 afbd 61fa b73d 6d85 163e
00000210: ffb6 543d 84bd a5bd fbbf 37bd 3e0d c63d
00000220: 400d 373e 75c3 bb3d 15a0 05be cf21 cbbd
00000230: da95 493e 2e06 413b 465f 31be 4539 4a3d
00000240: a74d c3bd d2e7 263d f2ef 853d 5e99 043e
00000250: c2cb 0b3e a06b dcbd 41e5 b03d f656 efbd
00000260: 664b 32be 5cb6 58bb d667 0c3e a7d4 4ebd
00000270: 7354 27bd e6ad 96bd 4603 4ebe 9268 8cbd
00000280: 2a4b 08be 9ad5 82bb bc50 21be cc52 283e
00000290: f263 2a3e 57c1 3abe 831a 103e 27e1 d7bd
000002a0: 4258 fe3d b0eb 143d aecc 23be cc39 253d
000002b0: bf10 4a3e 3ecc a73d 1a2a 963d 7c67 35be
000002c0: 8275 a03d 9041 6e3c 5b71 1bbe 761c 983d
000002d0: 5a11 c3bd 56e0 86bd a0ac 243c c851 8ebc
000002e0: 8c89 aabd d2dc d3bd 427f de3d 7877 ea3c
000002f0: 481b 2bbd f51e 12be 4a39 e53d a04a 273d
00000300: 0056 3c3a e08a 09be d0c3 683c 60aa a33d
00000310: 4663 233d 3df9 08be cd72 8d3d 447b b03d
00000320: 55f0 4e3d d8c0 17bd c54b d53d cf9a 883d
00000330: 2253 38be 1ada 1c3e 1659 443e 04f0 193e
00000340: cd03 02bd 114b 8f3d aab0 ff3c dfba 373e
00000350: 4b96 373e f36a 14be 6aac 22be c86b 683b
00000360: 7381 3dbe c129 933c 8b12 d0bc c92b 543c
00000370: 7e23 2c3e b809 303e 3ce9 683d 2354 493e
00000380: 0153 8dbd 0467 77bd 005d a3ba 0ab8 d03d
00000390: 538c 253e fcbf ddbd 3985 48be 5d72 27be
000003a0: 3194 d1bd 72d0 8f3d af9b 1a3e 691c 023e
000003b0: 8d78 333e 9ef4 d73d bb2e 413e 05d8 1b3e
000003c0: dd94 87bd b3a4 e83d 633d 19be 2c64 f93d
000003d0: ce7b d8bd 9876 4b3e 5ef6 afbd a9b4 9f3d
000003e0: f8c8 10be 5cb1 14be 6fe2 7cbd 281c ee3d
000003f0: c96d 22be 21e2 2ebe 3f4a abbd 04bc 473e

sequential_2/dense_7/MatMul f4 [64, 128]
-0.06285902 0.14928693 -0.09466128 0.03050062 -0.11714276 0.120099075 0.034131028 0.06446792
-0.0151488 0.12905887 -0.1719104 0.12211333 -0.16222477 0.03727377 -0.07643673 0.16800989
0.05196652 -0.0045339717 -0.11586606 0.107718 -0.03296216 -0.017554928 0.064799495 -0.13304132
0.16505878 -0.038642563 -0.089943156 -0.07597234 0.1680093 -0.17486513 -0.07155953 0.12519123
-0.041091643 -0.07289761 0.044725176 -0.008693582 -0.15247321 0.08722078 0.16937312 0.1478953
0.06316312 -0.033845823 0.0635521 0.08635728 -0.027592745 0.12560579 0.10555029 0.003663525
-0.16077943 0.10599015 0.104903854 0.049203053 -0.035983745 0.07087284 -0.06674021 0.12404538
-0.041839853 0.13956298 0.11993287 0.08255788 0.09249021 -0.007549137 -0.11611302 0.17510809
-0.024948804 -0.0972539 -0.15148808 0.11246 -0.08405631 -0.072981566 -0.12367508 -0.1020261
-0.062098164 -0.03653811 -0.0805758 0.14766704 -0.09397682 0.0041798353 -0.14133057 -0.061224487
-0.17448981 0.121958986 -0.12063015 0.04314111 0.16626921 -0.11028119 0.03649883 0.053522244
0.13540833 0.012289688 -0.114647225 0.10170783 0.09020118 -0.016952395 -0.031196296 0.13206773
0.08262392 -0.082377024 -0.011562996 -0.17350538 0.058225617 -0.033767924 0.077912405 -0.04480904
0.067132235 0.0824018 0.16698503 0.1346103 -0.09819267 0.17109632 0.016104553 0.15539192
-0.06557295 0.11729185 -0.14022455 0.15998732 -0.1023685 -0.16285518 0.087009594 0.1685233
-0.067849636 -0.07264585 -0.1527347 0.15662034 -0.06214727 -0.043289274 0.17415261 -0.11078624
-0.040921055 0.1196827 0.16226289 0.09424405 0.10846408 -0.10454765 0.1695159 0.09826508
-0.06369774 -0.09925134 -0.1537819 0.16627534 -0.11213944 0.13442142 0.029668996 -0.085513465
-0.043393757 0.06770246 0.015061346 0.15332626 -0.01403819 -0.05949224 0.017428134 0.010519937
-0.05069609 0.0858258 -0.06724198 -0.10686141 0.0016499243 -0.17020667 -0.090747505 -0.08383772
-0.12241993 -0.118134156 -0.12653959 0.1422889 -0.060929358 0.08464138 0.08873068 0.07017513
0.0651259 0.0060740807 0.16038536 -0.035360873 0.10344911 -0.038890626 -0.14819261 -0.018232942
-0.02411896 -0.05708612 0.053200036 0.1109733 -0.14104976 0.042656694 0.05952239 -0.077498734
0.11850455 -0.04843309 0.060902044 0.035077453 -0.15949602 -0.015591636 -0.0682809 0.04921028
0.13151768 0.018485144 -0.05303292 -0.07431762 0.12883335 0.13536344 -0.16495214 -0.14243354
-0.10473299 0.1073183 0.12417206 0.04195048 -0.05983497 -0.06403678 -0.008565956 -0.053835995
0.15614 -0.14060031 0.107603 0.07183211 0.07893938 -0.005574465 -0.12625745 -0.17596604
-0.14464876 -0.02888012 -0.04572107 0.15724252 -0.011098273 0.023791894 -0.09160357 0.17459841
-0.13031025 0.052719295 0.080116585 0.055757154 0.04458049 0.10469316 0.12162406 -0.16681015
0.17439565 -0.04209505 -0.071159326 0.07693537 -0.1138748 0.044324953 -0.024647469 0.119924165
-0.022288516 -0.058902577 -0.01817891 0.12378178 -0.015280297 -0.077538006 0.110862866 -0.13392459
-0.07429162 0.010374397 0.04387562 -0.056916036 0.1463427 0.023861349 -0.0041618035 -0.016033202
00000000: 3bbc 80bd acde 183e c6dd c1bd 70dc f93c
00000010: 8be8 efbd 81f6 f53d facc 0b3d c207 843d
00000020: ac32 78bc 0228 043e 4809 30be 8e16 fa3d
00000030: 401e 26be 61ac 183d dc8a 9cbd c90a 2c3e
00000040: d8da 543d b691 94bb 2f4b edbd 419b dc3d
00000050: 5403 07bd 5acf 8fbc 99b5 843d fc3b 08be
00000060: 2b05 293e aa47 1ebd 1e34 b8bd 6397 9bbd
00000070: a10a 2c3e d80f 33be ce8d 92bd 2132 003e
00000080: b64f 28bd 584b 95bd bf31 373d 876f 0ebc
00000090: f021 1cbe cfa0 b23d 2670 2d3e de71 173e
000000a0: aa5b 813d eba1 0abd 9a27 823d 16dc b03d
000000b0: 2e0a e2bc ce9e 003e c02a d83d c017 703b
000000c0: 5da3 24be 5d11 d93d d5d7 d63d 2489 493d
000000d0: b163 13bd c825 913d 17af 88bd 810b fe3d
000000e0: 4460 2bbd 99e9 0e3e 5d9f f53d 1b14 a93d
000000f0: 826b bd3d c05e f7bb aacc edbd 894f 333e
00000100: 6f61 ccbc 0d2d c7bd b11f 1bbe 6e51 e63d
00000110: b725 acbd 5c77 95bd 5c49 fdbd 0ff3 d0bd
00000120: a55a 7ebd fca8 15bd ed04 a5bd 0736 173e
00000130: eb76 c0bd 00f7 883b f6b8 10be 87c6 7abd
00000140: 75ad 32be a2c5 f93d f10c f7bd bcb4 303d
00000150: 7a42 2a3e 1bdb e1bd cc7f 153d 243a 5b3d
00000160: 7ba8 0a3e b05a 493c 2acc eabd 324c d03d
00000170: 65bb b83d c0df 8abc 608f ffbc c33c 073e
00000180: bb36 a93d 49b5 a8bd b872 3dbc 65ab 31be
00000190: fc7d 6e3d 3c50 0abd 8a90 9f3d af89 37bd
000001a0: a07c 893d 46c2 a83d 20fe 2a3e 48d7 093e
000001b0: 3d19 c9bd e033 2f3e b2ed 833c 0f1f 1f3e
000001c0: 1c4b 86bd b636 f03d 0697 0fbe b7d3 233e
000001d0: 93a6 d1bd 82c3 26be 1632 b23d 5f91 2c3e
000001e0: c0f4 8abd 59c7 94bd 7c66 1cbe 1561 203e
000001f0: 238e 7ebd 1850 31bd 1055 323e e5e3 e2bd
00000200: d69c 27bd 341c f53d 3e28 263e 0603 c13d
00000210: 6a22 de3d 141d d6bd 9395 2d3e 343f c93d
00000220: f673 82bd 4944 cbbd 0179 1dbe 1544 2a3e
00000230: 5da9 e5bd c5a5 093e 650c f33c af21 afbd
00000240: a7bd 31bd 96a7 8a3d ddc3 763c 8f01 1d3e
00000250: 7000 66bc 23ae 73bd 72c5 8e3c d05b 2c3c
00000260: b4a6 4fbd 70c5 af3d 2ab6 89bd 28da dabd
00000270: 4642 d83a a84a 2ebe d4d9 b9bd 1cb3 abbd
00000280: 4db7 fabd 52f0 f1bd 9893 01be 2eb4 113e
00000290: 1091 79bd 7658 ad3d 6eb8 b53d fbb7 8f3d
000002a0: ba60 853d 1509 c73b 0f3c 243e 90d6 10bd
000002b0: 21dd d33d c74b 1fbd cebf 17be 405d 95bc
000002c0: 2095 c5bc 23d3 69bd 48e8 593d f845 e33d
000002d0: 596f 10be c9b8 2e3d c0cd 733d a8b7 9ebd
000002e0: 83b2 f23d c761 46bd 6c74 793d 60ad 0f3d
000002f0: ed52 23be 1074 7fbc dbd6 8bbd b890 493d
00000300: 92ac 063e 286e 973c 0c39 59bd d633 98bd
00000310: e4ec 033e b79c 0a3e 37e9 28be 19da 11be
00000320: 407e d6bd b2c9 db3d ec4d fe3d 44d4 2b3d
00000330: 8315 75bd b725 83bd 3958 0cbc 2283 5cbd
00000340: 2ae3 1f3e 87f9 0fbe f65e dc3d b71c 933d
00000350: f8aa a13d 00aa b6bb a249 01be 7130 34be
00000360: ce1e 14be 0096 ecbc 0446 3bbd 2f04 213e
00000370: 88d5 35bc 38e7 c23c a79a bbbd edc9 323e
00000380: 0d70 05be 30f0 573d 2a14 a43d 9d61 643d
00000390: 089a 363d 5e69 d63d 0916 f93d 48d0 2abe
000003a0: c694 323e dc6b 2cbd fbbb 91bd 4b90 9d3d
000003b0: 3137 e9bd 158e 353d 7de9 c9bc cd9a f53d
000003c0: 6896 b6bc d443 71bd f0eb 94bc 4d81 fd3d
000003d0: 365a 7abc 3fcc 9ebd 120c e33d 8723 09be
000003e0: 3426 98bd 60f9 293c ecb6 333d ca20 69bd
000003f0: dcda 153e e078 c33c bd5f 88bb 1058 83bc

sequential_2/dense_8/MatMul f4 [1, 64]
0.081081666 0.16241404 -0.02363205 0.25692406 -0.006853014 -0.041381977 -0.05803156 -0.0039786696
0.19885623 -0.2297115 0.26411557 0.23152214 -0.019980967 -0.029200196 0.13594182 0.08040414
-0.2526387 -0.2674297 -0.10118821 0.24440704 0.058179446 0.14647473 -0.10220657 0.18495929
-0.21989591 -0.28465474 -0.114630744 -0.21086757 -0.29785076 -0.21380413 0.060441263 -0.25462034
-0.24677967 -0.0048539476 0.25228292 -0.046922058 0.24065909 -0.26733062 -0.094094485 0.04689753
-0.24752915 -0.13575402 0.12627977 0.112201154 0.12052934 -0.03260491 -0.25097966 0.004758975
0.26059508 0.18104026 0.08330923 -0.28163254 0.038251907 0.14589757 -0.2784615 0.26396173
0.026761115 -0.15993015 -0.2985122 -0.053823993 0.028375953 0.23321158 -0.17641494 -0.05023417
00000000: 250e a63d de4f 263e 0098 c1bc 8d8b 833e
00000010: 408f e0bb 2680 29bd 80b2 6dbd 805f 82bb
00000020: f8a0 4b3e 7e39 6bbe 283a 873e 2414 6d3e
00000030: 20af a3bc 4035 efbc 5534 0b3e edaa a43d
00000040: dc59 81be 8cec 88be c43b cfbd d745 7a3e
00000050: 924d 6e3d 79fd 153e ae51 d1bd f865 3d3e
00000060: 652c 61be 44be 91be 86c3 eabd abed 57be
00000070: e57f 98be 78ef 5abe 4291 773d 995d 82be
00000080: cfb3 7cbe dd0d 9fbb 3a2b 813e 5831 40bd
00000090: 566f 763e 8fdf 88be 9cb4 c0bd a017 403d
000000a0: 4878 7dbe 1a03 0bbe 7c4f 013e b8c9 e53d
000000b0: 16d8 f63d ba8c 05bd 6880 80be 2df1 9b3b
000000c0: b86c 853e 9e62 393e 089e aa3d 2432 90be
000000d0: 08ae 1c3d 2c66 153e 8192 8ebe fe25 873e
000000e0: 203a db3c bbc4 23be 97d6 98be 8c76 5cbd
000000f0: b074 e83c 04cf 6e3e 1ea6 34be 58c2 4dbd
