kerasModel.tflite (tflite, 46152 bytes, 5 tensors)

sequential_7/dense_22/BiasAdd/ReadVariableOp f4 [64]
000000 23 7e 32 3c 8d 44 30 3c 4a ed ec bb d0 33 2d 3c
       0.010894331 0.010758531 -0.0072304355 0.010571435
000010 67 47 23 3c 3a 99 04 bc ee ac 1f 3c 40 dd fc 3b
       0.009965754 -0.008093173 0.0097458195 0.0077168047
000020 0f 7b 40 3c 90 d4 25 3c 76 32 b2 bb de ae 37 3c
       0.011748089 0.01012148 -0.0054381443 0.011211125
000030 27 f2 06 bc e4 07 2c bc 2d 21 28 3c a8 82 2d 3c
       -0.008236445 -0.010499928 0.010261816 0.010590233
000040 a2 ba ff bb b2 ad 3b 3c e4 2c f1 bb 5b 1a 32 3c
       -0.007804231 0.011454986 -0.0073600877 0.010870541
000050 de 8f a2 3b 61 bc 31 3c fe c1 2b 3c 00 00 00 00
       0.004960998 0.010848136 0.010483263 0.0
000060 f0 69 41 3c 63 f0 11 bc 5d ae 3a 3c 71 85 c4 bb
       0.011805043 -0.00890741 0.0113941105 -0.005997353
000070 8e 07 30 3c 49 6c dd bb 20 33 2f 3c 44 c0 2c 3c
       0.010743989 -0.0067572934 0.0106933415 0.010543887
000080 82 ab 22 bc a3 28 34 3c 3c ee 88 3b d7 c6 1b bc
       -0.009928586 0.010996017 0.0041787904 -0.009507856
000090 24 88 b6 bb 42 f6 08 bc 4c 0e 3e 3c 00 bc 39 3c
       -0.0055704284 -0.008359494 0.011600088 0.011336327
0000a0 41 8a 0d 3c 14 c2 fc ba 95 ad 0d 3c 4f 00 de bb
       0.008638919 -0.0019283914 0.008647342 -0.006774939
0000b0 68 ff 3b 3c ae 92 28 bc 13 39 89 3b fa 0c 3b 3c
       0.011474468 -0.010288877 0.004187712 0.011416668
0000c0 04 c6 35 3c f3 10 37 3c ce c2 44 3c 85 ae 12 3b
       0.011094574 0.011173475 0.012009336 0.0022381854
0000d0 97 e2 1a bc 22 35 2a bc 62 2d 31 3c b2 db fd bb
       -0.009453437 -0.010388644 0.010814043 -0.007747137
0000e0 7e dc 2a 3c d8 9c 16 3c 7b c8 32 3c 9d 56 21 bc
       0.010428546 0.009192668 0.010912056 -0.00984731
0000f0 dd c6 01 bc b8 af 48 3b 86 18 2c 3c 5a 39 da bb
       -0.007920948 0.0030622315 0.010503894 -0.006659669

sequential_7/dense_21/BiasAdd/ReadVariableOp f4 [128]
000000 3e 67 01 bc 74 29 22 3c c3 f1 34 3c 4a cd 24 bb
       -0.00789815 0.0098975785 0.011043969 -0.0025146776
000010 8a 74 55 bb a9 db 1a bc e0 f6 13 3c ef 63 3c 3c
       -0.0032570683 -0.009451785 0.009031028 0.011498435
000020 ba ad b4 bb 13 98 25 bc d0 d3 ba 3a 80 d3 39 bb
       -0.005513874 -0.010107058 0.0014253799 -0.0028354824
000030 e3 d5 a3 3b 84 ba fa 3b cb 1f 24 3c 97 56 3e 3c
       0.0049998625 0.007651629 0.010017346 0.011617324
000040 ed bc 10 3c 49 92 28 3c 16 3e 0c bc d8 70 2e 3c
       0.008834106 0.010288783 -0.008559724 0.010647021
000050 bb f3 2f 3c b3 19 10 bb 27 a7 0b bc ac 95 d4 3b
       0.010739262 -0.0021987974 -0.008523739 0.006487569
000060 13 59 c8 3b 97 ce 5b 3b 3f 0e 2f 3c dd 5f f7 bb
       0.006114134 0.0033539885 0.010684549 -0.0075492696
000070 48 f5 1e bc 08 df 38 3c 4d b3 33 3c 8f fb 08 3c
       -0.009702034 0.011283644 0.010968042 0.0083607575
000080 fe ec 2b 3c 4d b3 0d 3c 75 78 38 3c 07 de 3b 3c
       0.010493515 0.008648706 0.011259188 0.01146651
000090 56 80 31 3c 65 5b 39 3b 4a fd 9e ba fa c4 b1 3a
       0.01083382 0.0028283235 -0.0012129929 0.0013562732
0000a0 c3 40 1c 3c d1 48 24 bc 31 d6 29 3c 6a 61 20 bc
       0.009536925 -0.010027126 0.010366009 -0.00978885
0000b0 00 eb f7 38 71 8d ca 3b 26 b1 f5 bb fa a5 29 bc
       0.0001182165 0.006181412 -0.0074979244 -0.010354513
0000c0 44 28 2f bc cc 8a 2f 3c 40 8c bd 39 4a 11 3f 3c
       -0.010690752 0.010714244 0.00036153384 0.011661837
0000d0 2b c7 02 3c 6d 3b 2d bc 9e 4f 29 bc be 77 41 3c
       0.007982056 -0.01057325 -0.010333924 0.011808334
0000e0 3d 69 35 3c 67 2e 04 3c 96 2b 2c 3c b4 92 c4 3b
       0.011072454 0.008067704 0.010508439 0.0059989337
0000f0 8e cd 2d 3b f0 45 35 bc f2 dc 1b bc 21 99 32 bc
       0.0026520225 -0.011064038 -0.009513127 -0.010900767
000100 30 e8 e3 bb d6 7e 38 3c 22 4c 07 bc 67 10 0b 3c
       -0.006955169 0.011260709 -0.008257898 0.008487797
000110 df 80 a1 bb 6d b3 38 bc 95 3b 7c bb 84 5e d7 bb
       -0.0049286927 -0.011273247 -0.0038487662 -0.0065725464
000120 ef cb 2c 3c 57 f9 02 3c 76 3f 3a 3c 94 17 3b 3c
       0.010546668 0.007994018 0.011367669 0.011419196
000130 fb 99 26 bc 83 9c 32 3c 81 3f e9 3b bb eb 2c 3c
       -0.010168548 0.010901573 0.007118166 0.010554249
000140 c3 5b 26 3c a3 fe 11 bc aa b5 d8 bb 89 72 38 3c
       0.010153714 -0.008910808 -0.006613453 0.011257776
000150 de 75 a5 3b f2 3c 16 bc 56 a8 1c bb 12 5f 92 3b
       0.0050494513 -0.009169804 -0.0023904047 0.0044668997
000160 81 97 3d 3c 74 62 34 3c e9 23 2f 3c b2 39 5b 3a
       0.011571766 0.011009801 0.010689714 0.0008362784
000170 2e 8c 03 bb 85 34 34 bc 32 c1 43 3c 28 cc f5 bb
       -0.0020072567 -0.01099885 0.011947917 -0.007501144
000180 84 3c 10 3c 18 6d 3a 3c c8 30 0e 3c f1 80 d9 bb
       0.008803491 0.011378549 0.008678623 -0.0066376855
000190 46 f3 f4 b9 79 d9 2b 3c ba 18 69 3b d5 23 40 3c
       -0.0004672056 0.010488861 0.0035567717 0.011727293
0001a0 31 a7 37 3c 00 3d 10 3c 91 fe 2f 3c 08 78 0c 3c
       0.011209295 0.008803606 0.010741846 0.00857354
0001b0 f5 5b 2d bc a3 91 3c 3c 80 a1 05 bc 78 91 0f 3c
       -0.010581006 0.011509332 -0.00815618 0.00876271
0001c0 39 57 39 3c 5b 77 3e 3c a0 18 a8 3b 08 3d 45 3c
       0.011312299 0.011625136 0.0051298887 0.012038477
0001d0 7d 57 38 3c 37 6c 32 bc 05 78 b2 bb b5 87 a0 bb
       0.011251328 -0.010890058 -0.0054464363 -0.00489899
0001e0 78 29 86 3a a1 c2 33 3c 04 fd 3d 3c 86 30 25 3c
       0.0010235747 0.010971696 0.011595968 0.01008237
0001f0 e8 64 09 bc d4 47 39 3c 03 52 31 3c b2 6b 0c bc
       -0.008385874 0.011308629 0.010822776 -0.008570598

sequential_7/dense_21/MatMul f4 [128, 20]
000000 e7 2c e6 bd c3 54 ac 3d 5c 64 27 3e 77 29 8b 3d
       -0.11239033 0.084146045 0.16346878 0.06795018
000010 95 82 cd 3d 4f a8 0b 3e 38 02 e1 bd f6 31 ce bd
       0.10034672 0.13638423 -0.10986751 -0.10068123
000020 98 9d e8 3b 17 dd d1 3c 56 9a ed 3d 67 15 fd 3d
       0.0070988648 0.02561812 0.11601703 0.12357598
000030 0e 88 0a be 0f bc 7e bd 79 58 4b 3c 9b 33 39 be
       -0.13528463 -0.062191065 0.01241123 -0.18086092
000040 24 56 e6 3d f9 b1 f2 bd 89 6b ce 3d 5b 7d 71 bb
       0.11246899 -0.11850352 0.100791045 -0.00368484
000050 08 b3 77 3d 27 5c 88 3d c5 eb d3 bd 41 d1 de 3d
       0.060473472 0.06658202 -0.10347704 0.10879756
000060 5d fa a1 bd 2b b6 f5 3d 86 ac af bc 34 ac 98 3c
       -0.07909081 0.119976364 -0.02144457 0.0186368
000070 fd ea 38 bd 2c c0 95 bb a7 ec 0e bd 5a a1 2b bc
       -0.045145977 -0.004570028 -0.034893658 -0.010475481
000080 e0 34 8b 3d 98 c0 97 bd eb 4b 06 3e 94 d0 5e 3c
       0.067971945 -0.07409781 0.13114898 0.013599534
000090 0f 54 2d be 27 75 2f 3e 01 d8 d4 3d d1 62 c6 3d
       -0.16926597 0.17134534 0.10392762 0.096868165
0000a0 52 00 51 3d eb 62 d7 3d 62 63 e4 bd cf 66 e7 3d
       0.051025696 0.10516914 -0.11151768 0.11298906
0000b0 ba 7a b9 3d f9 45 2a be 88 f7 1e be ab c7 d6 3d
       0.09056611 -0.16628255 -0.15524113 0.104873024
0000c0 ad 1b 22 be 13 9a 9b 3d f8 fe e4 bd 13 1a 33 3d
       -0.1583087 0.07597747 -0.11181444 0.04372604
0000d0 b4 fa d1 bd b2 b4 20 be 01 f0 9e bc fc eb 66 bd
       -0.10252896 -0.1569393 -0.019401552 -0.056377396
0000e0 8a 3a 3f 3e 70 a8 1a be 14 0c d3 bd 64 c3 d6 bd
       0.18674675 -0.15103316 -0.10305038 -0.104864866
0000f0 8a 83 cc bd 86 ce 10 be 08 97 2b 3e 2c 5f 48 be
       -0.099860266 -0.14141282 0.16756833 -0.19567555
000100 a6 4a 1c 3e 29 55 3c be d3 2f 0b 3e 0d 59 1f 3e
       0.15262851 -0.18391861 0.13592462 0.15561314
000110 5e 66 c7 bd a6 b2 04 be eb b3 0e 3e ba a6 47 be
       -0.09736322 -0.12958774 0.13935821 -0.19497195
000120 43 d0 02 3e 3e c7 0e be 7c 43 0b be ca 06 8e 3d
       0.12774758 -0.13943192 -0.13599962 0.06934889
000130 9d f5 c5 3c 4a 9e 1d be f0 63 38 bb 52 ce 06 bb
       0.02416497 -0.15392414 -0.002813574 -0.0020569754
000140 a7 5e 74 3d f8 e7 e4 bd 07 bd c8 3d cc 41 33 be
       0.05966058 -0.11177057 0.09801679 -0.17505568
000150 17 9b 14 3e 00 e0 f5 3d c3 9e 1e be 80 62 16 be
       0.14512287 0.12005615 -0.1549025 -0.14686012
000160 7c ca e8 3d 40 78 c4 3d 25 d3 fa 3d b6 aa 6d bd
       0.11366746 0.09593248 0.12247304 -0.05802413
000170 11 c2 ef 3d 64 0d 28 3e ec b1 e1 3d 67 64 8d 3c
       0.11706937 0.16411358 0.11020264 0.01725979
000180 01 f4 d7 3c 10 09 c8 3a be 96 a2 bd 6a a8 11 3d
       0.026361467 0.001526149 -0.07938908 0.035561003
000190 48 54 04 be 36 f0 c2 3c 92 f2 22 be c7 83 1c 3d
       -0.12922776 0.023796182 -0.15912846 0.03821161
0001a0 b8 57 59 bd 73 23 97 3d cc c7 78 bd 4e e2 37 3e
       -0.05306217 0.07379808 -0.060737416 0.17957422
0001b0 82 64 17 be 87 0d be 3c 62 76 ad bd 84 e4 b2 3d
       -0.14784434 0.02319981 -0.08469845 0.08734992
0001c0 a5 f9 e2 bd 2d af 39 be fa dc a3 3c 17 8a 2c be
       -0.11082772 -0.1813323 0.02000283 -0.16849552
0001d0 e4 9f 0c bd a9 d5 00 be 4b fd 3c bd 80 bc 63 3d
       -0.03433217 -0.12581505 -0.046139996 0.05559969
0001e0 90 1d ef bd 3f 2f ea bd e7 f3 c7 bc e4 a6 4b 3e
       -0.116755605 -0.11434793 -0.024408294 0.19887882
0001f0 75 24 58 bc 83 b4 dd bd 31 ca 2b be 8d d5 90 bd
       -0.013192286 -0.108254455 -0.16776349 -0.070719816
000200 8e 92 23 bc 94 d9 2c 3e 14 23 d4 3d f2 2e d6 bd
       -0.009983672 0.16879874 0.10358253 -0.10458173
000210 29 cd 80 bd 68 f5 9a bc 95 37 9b bd 93 13 22 be
       -0.06289131 -0.018915847 -0.07578961 -0.1582778
000220 fc 15 fd 3d b9 38 c2 3b d3 fb a4 bd 52 f9 ef bd
       0.12357709 0.005927172 -0.08055844 -0.11717476
000230 a6 b7 45 3e fa 8c 4c 3d 3f 5d b7 3c a2 33 58 be
       0.19308338 0.049939133 0.02238333 -0.21113446
000240 f3 18 3a be 61 39 e3 bd e5 f1 8b 3d 99 fc 11 3e
       -0.1817358 -0.110949285 0.06833247 0.14256515
000250 1e 3d 36 3c 38 55 29 3e 2d c8 1d be 4d 4d f0 bd
       0.01112297 0.16536415 -0.15408392 -0.11733494
000260 5a 96 3f 3e 4e 46 fe bd ea bc 5d bd 73 ce 21 ba
       0.18709698 -0.12415753 -0.05413524 -0.0006172426
000270 c9 80 10 be e1 a5 ff 3d a4 7b 12 be 03 75 c5 bd
       -0.14111628 0.12482811 -0.14304978 -0.09641459
000280 44 41 d6 bd bb 59 31 3c 21 98 d0 bd 24 2a 04 be
       -0.10461667 0.010824616 -0.10185266 -0.129067
000290 0b 6a fd bc 25 96 0d be 59 7d 14 3e 27 27 fa 3c
       -0.030934354 -0.13826807 0.14500941 0.030536247
0002a0 c1 bb f9 3d 5a 3b 16 3e 38 9e 9a 3d ae 89 26 be
       0.12194014 0.14671078 0.07549709 -0.16263458
0002b0 6d 6f 25 be bb 3a d2 bc 34 56 aa 3d bc bb 38 bc
       -0.16155787 -0.02566277 0.08317223 -0.011275228
0002c0 49 af e7 3d 8f 0a 13 3e c1 c2 11 be d2 97 ef 3d
       0.1131273 0.14359497 -0.14234449 0.11698879
0002d0 be 98 1c 3e f3 b5 42 bd e5 12 c9 bd 5c 69 09 3e
       0.15292642 -0.0475368 -0.09818057 0.13419098
0002e0 c0 ed f2 3d 88 0d 83 3d a2 49 41 3e 37 08 0d 3e
       0.118617535 0.06399065 0.18875745 0.13772665
0002f0 45 3f 2b be 2b 12 c0 bd 45 35 0b be af 6a 33 be
       -0.16723354 -0.09378465 -0.1359454 -0.17521165
000300 91 d7 17 3e 6a 7a 3b 3e 01 09 96 3d 5e e0 c2 3d
       0.14828326 0.18308416 0.07325936 0.09515451
000310 a9 8a 90 bd 3b 4e b0 3d 9d ee 09 3e e4 ba b3 bc
       -0.07057697 0.08608671 0.1346993 -0.021939702
000320 10 4c 0d 3e 44 97 44 be af 60 bf bd 05 09 f8 bb
       0.13798547 -0.19198328 -0.09344613 -0.0075694346
000330 79 85 07 3e 68 36 99 bd fc af 03 3e c8 13 52 bd
       0.1323451 -0.0748108 0.12860101 -0.051288396
000340 ff 9a e1 3b 77 1d 23 3c 94 23 12 3e 8f 2d d4 bc
       0.006884932 0.009955755 0.14271384 -0.02590063
000350 d4 9e 1d 3e 5d 86 2a bd 3c 4f 28 3d 83 bf 10 be
       0.1539262 -0.041632045 0.04109119 -0.14135556
000360 09 54 5f 3b 49 f3 e9 bd af 13 ec bd 8c 8c 35 3e
       0.0034077188 -0.11423356 -0.11527192 0.17729396
000370 fd db ab bd 09 43 1a 3e 70 06 9d bd 58 34 f2 3c
       -0.08391569 0.15064634 -0.076672435 0.029565975
000380 da 51 12 be 33 5c e4 bd 51 45 0d be 81 48 ab 3d
       -0.14289036 -0.11150398 -0.13795973 0.083634384
000390 ea bf a8 3b f9 23 38 bd 0b 87 e7 3d 0a 72 09 be
       0.005149831 -0.04495618 0.11305054 -0.13422409
0003a0 32 26 c7 3d af e4 9a 3c cb ae 21 be 44 0e 68 3d
       0.09724082 0.018907873 -0.15789334 0.05665423
0003b0 5e 7b fe 3c e0 5e f7 3d 98 0b 26 be c9 3a 4b be
       0.031064685 0.12078643 -0.1621536 -0.19846644
0003c0 a0 d6 53 3e 36 ea e9 bd d1 0b eb 3d fc ed 98 3d
       0.20687342 -0.11421625 0.11476863 0.07467267
0003d0 29 d1 1c be 0e 50 b0 3d af f9 14 be 61 59 50 be
       -0.15314163 0.08609019 -0.14548372 -0.20346595
0003e0 51 6c 05 bd 99 78 2c be 2b 42 86 3d ad 11 51 be
       -0.032574 -0.1684288 0.06555589 -0.20416899
0003f0 05 2f 20 bd 03 93 eb 3d 5c 24 d8 3d 85 4a 1c be
       -0.03910734 0.1150265 0.1055381 -0.15262802

sequential_7/dense_22/MatMul f4 [64, 128]
000000 d9 3e c2 3c 9a 4a 17 be 8f 1b fb bd a7 d1 8a bd
       0.023711609 -0.14774552 -0.12261116 -0.06778269
000010 ed b3 fa bd f7 f9 c0 3d 1c e8 0f bd a8 60 91 bd
       -0.12241349 0.09422677 -0.035133466 -0.07098514
000020 d1 a6 a2 3d 64 d2 bd bd 20 20 0f 3e 40 99 3a 3b
       0.07941974 -0.092686445 0.13977098 0.0028472692
000030 6f 94 15 bc d3 2b 06 3e d6 7d 2c 3e 4a 1f 1c 3e
       -0.009129628 0.13102655 0.16844878 0.15246311
000040 96 ba a0 bd 01 b3 5e bd 7d 9c 0e be b2 b3 32 bc
       -0.078480884 -0.05436993 -0.13926883 -0.0109071005
000050 15 db 98 bd 8e 3c b8 3d 9d aa 30 3e c3 e1 20 be
       -0.074636616 0.08995925 0.17252584 -0.15711121
000060 17 a0 d8 bc de 8e e3 bd 0f dd 18 bd 01 76 ea 3d
       -0.026443524 -0.11111234 -0.037320193 0.11448289
000070 76 72 98 3d d8 dd 8d 3c 74 3a 0b 3e fc 93 fc 3c
       0.07443707 0.017317697 0.13596517 0.030832283
000080 fb 06 8a bd 98 7d 81 bb 0c 8b f0 bd 7f ff 7f 3d
       -0.06739613 -0.0039517395 -0.11745271 0.06249952
000090 2c 95 ed bd 7e db 00 be da 04 34 3e 89 c2 9b 3c
       -0.11600718 -0.1258373 0.17579976 0.01901366
0000a0 ee a3 39 3e c7 90 67 3d d4 4f 40 3d a0 6d 68 3d
       0.1812894 0.056534555 0.04695113 0.05674517
0000b0 59 e5 7a bc 58 cc 35 3d 0a 47 1b bd 97 f0 c8 3d
       -0.01531347 0.04438433 -0.037909545 0.09811514
0000c0 a6 d5 f3 3d bb d3 18 be 00 e4 c9 3d 64 e6 30 3e
       0.119059846 -0.14924519 0.09857941 0.17275387
0000d0 da a9 eb 3d 24 0f 16 bd 5b 4f be 3d 5b e1 38 3d
       0.11507006 -0.036635533 0.092924796 0.04513679
0000e0 ff b5 22 3e 98 b2 d5 bd 53 55 1f 3e 8c a9 21 3e
       0.15889739 -0.10434455 0.15559892 0.15787333
0000f0 25 59 15 3e 02 14 11 be 93 46 f0 3c 7a 6a 0a 3d
       0.14584787 -0.14167789 0.029330527 0.03379295
000100 3c f8 ad bd c7 3e f4 3d d3 db d9 bc 4f 50 3b bd
       -0.084946126 0.11926036 -0.026594078 -0.045730885
000110 5e d6 68 bd a4 8f 1b 3e 51 7f e9 3d 03 80 06 3d
       -0.05684506 0.15191513 0.11401237 0.032836925
000120 9e 16 bf 3d 73 e4 c3 bd f0 5e 32 bd f8 ab 65 bb
       0.09330486 -0.095650576 -0.04354757 -0.0035045128
000130 95 24 c1 3d 31 58 18 3e 10 c8 24 3e 9c 92 5f bc
       0.094308056 0.14877392 0.16091943 -0.013645794
000140 08 fb 93 3d ed 73 11 be 48 bf 1e 3e cf 86 9a 3d
       0.07225615 -0.14204378 0.15502656 0.07545244
000150 69 a6 fa bc c7 e3 26 be 06 5e e1 bd f2 90 03 3e
       -0.030596929 -0.16297828 -0.11004262 0.12848261
000160 8d 7f 11 3e 60 9d b9 3d f3 75 27 3e 79 6d e4 bd
       0.14208813 0.0906322 0.16353588 -0.11153693
000170 15 ae 85 bd ee d3 07 be fd af fb 3d ae 37 96 3c
       -0.06527344 -0.13264439 0.122894265 0.018337097
000180 f1 a8 30 3e be 52 2c 3e 3e 85 4f 3b 1b 1a 03 bc
       0.17251946 0.16828439 0.0031665112 -0.0080018295
000190 17 46 3c bd 1d 34 8b 3d 66 c8 22 bc 27 9c 1f 3e
       -0.04596528 0.06797049 -0.009935474 0.15586911
0001a0 6d aa 11 3e 2c 87 ae bd f7 93 89 bd e3 3f a0 3d
       0.14225169 -0.08521876 -0.06717675 0.078246854
0001b0 6f 0d f7 bd c4 b3 3e bc 8b 3f 22 3e 70 f1 fe bd
       -0.12063109 -0.011639539 0.15844552 -0.12448394
0001c0 98 3a 28 3e 7f d6 a5 3d 11 c6 0a be 9f 8e 8f bc
       0.16428602 0.080975525 -0.13552119 -0.017524062
0001d0 5d fd 31 3e 96 fd 2f be 0f 30 15 3e a2 44 07 bc
       0.17381807 -0.17186579 0.14569114 -0.008256109
0001e0 2c b0 d6 3d a0 a3 d2 3d f5 08 84 bd bb ea 21 be
       0.10482821 0.10285115 -0.06447021 -0.15812199
0001f0 76 ab 3b 3e 22 76 00 3e d9 65 d0 3c ed 45 e1 bd
       0.18327126 0.12545064 0.02543919 -0.109996654
000200 eb f1 91 bd 02 07 c6 3d 93 ff 11 bd 3d b9 0b 3e
       -0.0712622 0.096693054 -0.035644125 0.13644882
000210 fd 9b c6 bd 20 b6 9f 3d 4c 1b 8a 3c 37 70 f0 bd
       -0.09697721 0.077984095 0.01685872 -0.11740153
000220 1f a6 f2 3d 8a 32 89 3d b6 3b f0 bc 75 2e 1b 3e
       0.11848091 0.06699093 -0.029325347 0.1515444
000230 9b 5c 22 be df 9f 97 bd 86 19 0f 3e fd c1 87 3c
       -0.15855639 -0.0740354 0.1397458 0.016571993
000240 e0 fd f1 3d 89 1c 10 be 05 17 a0 3d 57 f5 70 3d
       0.11816001 -0.14073385 0.078168906 0.058827724
000250 de bd 91 bd 55 93 0e be c7 93 2c 3e c8 57 d6 3d
       -0.071162924 -0.1392339 0.16853248 0.10465962
000260 fb 71 33 3c a9 bb 30 3e c1 b6 0d be d1 a1 ea bd
       0.010952468 0.17259087 -0.13839246 -0.11456645
000270 4c 93 9b 3c 35 c5 2f bb 49 cc 8c 3d 6b ac 66 3d
       0.018991135 -0.0026820425 0.06874902 0.056316774
000280 5e 5f 66 bd a7 8d 32 3d d4 73 36 3e ce ca 24 3e
       -0.056243293 0.04359212 0.17817622 0.16092989
000290 a0 6e 0f 3c 5c 0b 1f 3e ec 50 2f be f9 c0 2b bd
       0.008754402 0.15531677 -0.17120713 -0.04193208
0002a0 22 93 dc bc 38 0a 0e be 37 68 85 bc b7 d9 97 3b
       -0.026925627 -0.13871086 -0.016285045 0.004634108
0002b0 86 4e f6 bd ba 57 78 3d 3b ca d1 3c e2 d8 a9 3d
       -0.12026696 0.060630538 0.025609126 0.0829332
0002c0 5e 3e ad bd 16 79 96 bd 3b f4 21 3e b2 18 f9 3d
       -0.08459161 -0.07347314 0.15815823 0.121629134
0002d0 55 e7 df 3d 4c fd 3a 3e 10 53 fd bc e1 dc d0 3d
       0.10932795 0.18260688 -0.030923396 0.10198379
0002e0 08 41 69 3d 4c 09 b9 bd 79 87 28 bd 1a bd ec bc
       0.056946784 -0.09034976 -0.04114482 -0.028898764
0002f0 40 f4 91 3c 92 8e fd 3d 75 46 36 3e d5 ac 5b bd
       0.017816663 0.12380709 0.17800315 -0.053631622
000300 d7 4b 1f bd a4 f0 87 3d 78 ee 7e 3d c8 d3 4f 3c
       -0.038890686 0.066376954 0.06223914 0.01268477
000310 0a 32 22 be f8 13 ee 3d 77 87 27 be 40 81 00 bd
       -0.15839401 0.116249025 -0.1636027 -0.031373262
000320 6f bd 95 bd 54 b7 9d bc f0 28 08 be 5e 5f e5 3d
       -0.07311522 -0.019252457 -0.13296866 0.111998305
000330 28 5a a1 bd 71 60 13 3e 34 c5 a0 3d 8c 5c 7e bc
       -0.07878524 0.14392258 0.078501135 -0.015524995
000340 1b 64 16 3e ed f4 fd bd b6 6c 95 3d df c1 eb bd
       0.14686625 -0.124002315 0.072961256 -0.11511587
000350 4a 1d 09 be 86 19 24 be 88 a2 c6 bd 57 2b f5 3d
       -0.13390079 -0.16025361 -0.09698969 0.11971157
000360 bf 34 8b 3c 1d 57 d2 bd 61 76 cc bd cc b6 2e 3d
       0.016992925 -0.10270522 -0.099835165 0.042654797
000370 ce 8e 33 3e 58 66 67 ba 5e 68 e5 3c ba 99 31 3e
       0.17534944 -0.0008827201 0.028003868 0.17343798
000380 6a f2 0b 3e 0c c8 08 3e 85 cf 25 3e df db b6 3b
       0.13666692 0.13357562 0.16192444 0.00558041
000390 89 f7 7a 3c bb 73 12 3d b8 3f aa 3d 25 50 0b be
       0.015317806 0.0357549 0.08312935 -0.13604791
0003a0 07 0e 11 be a4 0f 0c 3e 97 7f 1d 3e 72 f3 7e 3d
       -0.14165507 0.13677841 0.15380703 0.062243886
0003b0 59 f2 b0 3d 05 4a 04 bc 78 74 5b bd a6 4c 5c 3d
       0.08639974 -0.008074288 -0.05357787 0.053784035
0003c0 c9 16 26 3e 7f 2f 17 3e 69 37 22 be 81 f0 19 3e
       0.1621963 0.14764212 -0.1584145 0.15033151
0003d0 a1 99 23 3d d9 a2 de 3d 09 c4 ef bb 56 f4 25 be
       0.039941434 0.108709045 -0.0073170704 -0.16206488
0003e0 07 24 29 be 2b a5 43 bd 21 18 21 be 8e 0c e0 bc
       -0.1651765 -0.04776494 -0.1573186 -0.027349737
0003f0 ec 2c fb bd 3d 11 c6 bd ec 89 0f be 20 ee e8 bd
       -0.122644275 -0.09671257 -0.14017457 -0.11373544

sequential_7/dense_23/MatMul f4 [1, 64]
000000 ea af 7c be ac be 35 be 08 d2 37 3e 3b 83 e3 bd
       -0.24676481 -0.17748517 0.17951214 -0.111090146
000010 ff ea df bd 16 ba a1 bd 4f d2 77 be 47 e3 ab 3d
       -0.10933494 -0.07896821 -0.2420132 0.08392959
000020 d8 de 50 3e b1 71 54 be 8d 46 06 3e 72 df 96 be
       0.20397508 -0.20746495 0.1311285 -0.2946735
000030 94 5d ed 3c a1 fe 90 3e 61 cb 24 be 34 61 92 be
       0.028975286 0.28319266 -0.16093208 -0.28589785
000040 20 fb 41 3e 63 4e 86 be eb 8d 89 3e 8a 18 66 be
       0.18943453 -0.2623168 0.26866087 -0.22470298
000050 8b ec 75 3e 2b aa 65 bd 7c 9c 1e be 6e 10 a8 bd
       0.24016015 -0.056070488 -0.15489382 -0.08206259
000060 aa 85 41 be 0b 16 15 3d 26 70 0e be d7 28 4f 3e
       -0.18898645 0.036397975 -0.13909969 0.20230423
000070 e9 16 0f be 8d 4e 9e 3d b7 f5 0d bd fb ef 92 be
       -0.13973583 0.07729826 -0.03465816 -0.28698716
000080 86 d3 88 3e d0 83 8c 3d bf e9 67 3e e5 2a 40 3c
       0.2672388 0.06861079 0.22647761 0.011728977
000090 be 65 e9 3d a0 8c fe bd 31 58 97 be 74 a7 ab bd
       0.11396359 -0.12429166 -0.29559472 -0.083815485
0000a0 80 e4 a3 bc d5 26 44 3e 96 69 39 3e b5 1b 8f 3e
       -0.020006418 0.19155438 0.18106684 0.27950826
0000b0 5f 9a b7 bd b0 65 39 3e d3 da 00 bc 8a 66 57 be
       -0.08964991 0.18105197 -0.007864672 -0.2103521
0000c0 08 0e 84 3e 68 6f 92 be 20 ec 12 3e 9c 16 8f 3d
       0.25791955 -0.2860062 0.14347887 0.06986734
0000d0 d4 e5 55 3e 5e 1c 72 3d d0 45 38 be d3 94 4a 3e
       0.20888454 0.059109084 -0.17995381 0.19783334
0000e0 3d 5e 2d be 61 24 89 bd da 0c 3e be 1d e1 81 3e
       -0.1693048 -0.06696392 -0.1855959 0.2536706
0000f0 c6 84 5a 3e ce 2e 1a 3e 72 96 2b be f6 dd 61 3e
       0.21339712 0.15056917 -0.16756609 0.22057328
