kerasModelUpdated.tflite (tflite, 47112 bytes, 5 tensors)

sequential/dense_1/BiasAdd/ReadVariableOp f4 [64]
00000000: c10a 84bc 1d7a 40bc b472 ae3b 696d 17bc
00000010: 6843 fcbb e06d 623b 5f34 733c bb10 57bc
00000020: 7188 3fbc 8f1f 983c 38d5 2b3c b22b 8a3c
00000030: 152e d63b 23be 60bc c13c 8b3c 6ad2 1dbc
00000040: 1318 293c b421 983c f036 48bc dd5b 593c
00000050: 2dcf 203c 8fe4 73bc 5ac4 a7bb 4705 89bb
00000060: 3c7c 1b3c bc52 503c e87d 683c 8abd 9f3a
00000070: 5ec8 7c3c 78c4 953c 2798 7fbb 22c4 6b3c
00000080: 50d7 30bc d607 983c 48e6 8d3c 9b85 0cbc
00000090: 7653 77bb 150c 8e3c 576a 233b 0ca6 5eba
000000a0: 64c5 14bc 017e 013c b544 583c 7ca4 25bc
000000b0: 0bf7 73bc b298 d5bb d7ef 853c f42d 753c
000000c0: 9c43 7fbc d78a 68bc e0eb 8d3c 501e fabb
000000d0: e6e2 953c 5d73 223c c982 6dbc 338c 413c
000000e0: 7c9d 3cbc 4661 62bc 6dec e8bb fc8e 59bc
000000f0: c850 613c 2cbe 583c c57f 243c 660f 59bc
-0.01611841 -0.011747864 0.0053237323 -0.009242394 -0.007698465 0.0034550354 0.014844029 -0.013126547
-0.011690245 0.018569736 0.010487847 0.016866539 0.006536255 -0.013717207 0.016996743 -0.009632686
0.010320681 0.018570758 -0.012220129 0.013266531 0.00981502 -0.014886036 -0.0051198425 -0.0041815373
0.009490069 0.012715038 0.014190175 0.0012187224 0.015428631 0.01828216 -0.0039000602 0.014390023
-0.010793522 0.018558424 0.01732172 -0.008576776 -0.0037738956 0.017339746 0.002493521 -0.0008493371
-0.009080265 0.007903577 0.013199975 -0.010110017 -0.014890443 -0.006518447 0.016349716 0.014964569
-0.015580084 -0.014193258 0.017324388 -0.007633008 0.01829667 0.0099152 -0.014496514 0.011813211
-0.011512157 -0.013817137 -0.0071082623 -0.013278719 0.01375217 0.013228934 0.010040228 -0.0132483

sequential/dense/BiasAdd/ReadVariableOp f4 [128]
00000000: 10fe 523c 9c4c d03b 9b49 9d3c 41ad 843c
00000010: 20a4 6abc 4c53 f63b 0494 44bc 5dc1 363c
00000020: e167 5cbc 04e7 383c a4f6 793c e72a 883a
00000030: 19e0 88bc e193 1ebc a9d9 97bb 3449 413c
00000040: 6000 8b37 453d 36bc 707e 3abc 183b 4abc
00000050: 504a 993b 5c4d ad38 1c53 443c e14c 273a
00000060: 950d 253c 1635 a0bb 22fe 973b 6f38 853c
00000070: 2857 803b 4e11 8d3c 82fb 633c 00fd 6e3c
00000080: a939 82bc 7378 03ba 55a6 46bc dc90 273c
00000090: 0f75 49bb f2d4 80bb 75e7 02bc 826c 93bb
000000a0: 0230 443c 884c 81ba 00bb 063c 5811 eebb
000000b0: 40fd 45ba 3e3f 903c bcbd 2fbc 507e d4bb
000000c0: e9b7 493c 46ad 81bc a737 853c 9442 333c
000000d0: c02d d5bb 93d5 1bbb d351 083b fd5b 0f3c
000000e0: 4bc5 723c a90c 953c 7953 ca3b 6560 09bc
000000f0: a23c 093c 54a0 47bc ebdf 943c ff75 1abc
00000100: 1aaf 583c 6a14 fbba 5c68 26bc cc70 2db9
00000110: 3843 903c c1c7 673a 0f3f 5fbc 74f8 933c
00000120: 8d24 96b9 cff5 69bc c1a0 c83b 4d0c 453c
00000130: b7a6 8f3a f83a 1fbc bc05 7b3c 7fba f43b
00000140: 6676 82bc e5b7 2c3b 93fb c6ba a4e1 733c
00000150: 51c1 933c 1a6c 883c dd1a 48bc ca4f c93b
00000160: 8dae 943c 91da 7f3c 50ab 31bc 64f4 133c
00000170: bf99 82bc accb 8a3c 3bfb d4ba ed9d 493c
00000180: fdb7 80bc 5a2a 693c be9d da3b 8538 3cbc
00000190: e045 c5bb 561f 7f3c 1a6f 2cbc 4440 a93b
000001a0: eb37 873c ba04 38bc fb8a 1dbc bb6f 5a3c
000001b0: ff3b c7bb 64f4 68bc 4943 5ebc fc1b 39bb
000001c0: 2272 34bc 9a3a 223b f06a 1c39 61e6 a73b
000001d0: 189e e2bb f53f 37bb 2f91 5e3c e470 333b
000001e0: 45da 613c 339d 813c 1284 41bb d3e1 783b
000001f0: 2468 893c 7de9 873c d042 883c f9c7 84bc
0.012877956 0.006356789 0.019200137 0.016195895 -0.014321357 0.007517254 -0.01199818 0.0111545
-0.013452501 0.011285547 0.015256558 0.0010388762 -0.01670842 -0.009678812 -0.0046341014 0.011797238
1.6570266e-05 -0.011123006 -0.011382684 -0.012343191 0.004678048 8.263692e-05 0.011982705 0.0006382
0.010074039 -0.004889141 0.0046384493 0.016262261 0.00391664 0.017220166 0.013914945 0.014586687
-0.015896635 -0.0005015202 -0.012124618 0.010227408 -0.0030739938 -0.003931635 -0.007989754 -0.004499019
0.011974337 -0.0009864727 0.008223295 -0.007265251 -0.0007552691 0.017608281 -0.010726389 -0.006484784
0.012311914 -0.015829694 0.016261889 0.010941166 -0.006505698 -0.0023778423 0.0020800724 0.008749959
0.014817546 0.018194513 0.0061745015 -0.008384799 0.008376272 -0.012184221 0.018173179 -0.0094275465
0.013225341 -0.0019155864 -0.010156717 -0.00016540586 0.017610177 0.00088417163 -0.013625874 0.018062808
-0.00028637462 -0.014279797 0.006122679 0.0120268585 0.0010959719 -0.009718649 0.015321191 0.007468521
-0.015925597 0.0026354727 -0.0015181176 0.01488534 0.018036516 0.01665311 -0.012213436 0.006143545
0.018149639 0.015616075 -0.010844067 0.009030435 -0.015942452 0.016942821 -0.0016249189 0.012305719
-0.015712732 0.014231289 0.0066716364 -0.011488085 -0.0060202926 0.015571436 -0.010524536 0.0051651318
0.016506156 -0.011231596 -0.009615655 0.013332303 -0.00608015 -0.0142184235 -0.013565847 -0.002824544
-0.0110135395 0.0024754168 0.00014917157 0.005123899 -0.006915819 -0.0027961705 0.013584419 0.002738052
0.01378495 0.015822029 -0.0029528183 0.0037976399 0.016773291 0.016590828 0.016633421 -0.016208636

sequential/dense/MatMul f4 [128, 22]
00000000: 41a0 273e 945d 5cbe 6e5c 67bd dc15 9dbd
00000010: f398 f1bd 87ae 2abe 6abe 35bc 5f2e 5bbe
00000020: 5562 3abd 19da 0cbe 2f12 bf3d 53e0 4dbd
00000030: 3401 9e3c be9f 113e db5b 0d3d eb99 023e
00000040: 6141 9f3c 0711 383e 8861 4ebe 3415 b23c
00000050: a598 963d 915b e6bd f991 3c3e 16e1 963d
00000060: 9874 2fbc 5bdf 023e 607a b5bc 19a8 253e
00000070: 01a2 12be 87ab 1dbe 870e 27be 45ff edbc
00000080: c221 2fbe 6ef3 103e 4df8 0abe a3ef 033e
00000090: 77ed 85bd d3ec e8bd 5973 a0bd 4b51 cdbd
000000a0: a747 40be 56f5 96bc c5fa cd3d ec7d 2a3e
000000b0: 4085 6a3d f0b1 36be 5cd6 d7bd 4827 e6bc
000000c0: ce79 14be 5e92 5a3e 6edd 033d 2000 1d3e
000000d0: 6474 dc3d 5d9f f63b 0071 993d 7ee7 4e3e
000000e0: a4b7 55be 4ad4 353d 5e2e 033e 2852 f2bd
000000f0: 8c57 1cbd 1f9e 133b 94ed e13d 482b 64bd
00000100: 7d80 123d 0da9 b1bd 26d7 10bc 5758 22be
00000110: f250 ba3c 7585 e83d 0915 073e 054e 493e
00000120: 50f3 043e 574f f6bd 1c54 afbc bb7d a8bd
00000130: 2e2b 9a3c aaaa 1dbd 4d91 d5bd fa88 643d
00000140: f27a 3dbe 1e25 193e f8b1 2fbe ae27 e43b
00000150: 8f78 b73d 9ce5 513e 5e17 19be ba84 073e
00000160: 301b 053e d221 5abd f1bd d4bb 1ea5 fbbd
00000170: 430c 1a3e da77 a8bc 53f0 02bc 0dae b73d
00000180: a59c 0abe 1753 373d c33d 3a3e 5693 7abd
00000190: 3866 453e 5392 c8bd cf79 41be 59ff b13d
000001a0: 7e8f 0fbe 8b1f d43d bced 243e 556c bb3d
000001b0: 45ab 0a3d fdb8 43be d0a9 72bc 978e b53d
000001c0: ee5e eb3d a9f6 8ebd ca5f 0b3e 7d43 393d
000001d0: d5a2 6dbd 8f47 49be c257 023d 3be8 43be
000001e0: dd4f 223e 6be4 1bbe 052e 0b3e 9657 393e
000001f0: b25f 183d abd2 603d d7be 41be fd53 15be
00000200: ae29 9dbd 1827 d8bd 7fd3 07be 50da 4abe
00000210: b730 9e3d 7800 063e e80a 4f3e e924 87bd
00000220: 3d42 263d e87b cabd d0df 113e 9fa0 303e
00000230: fbf4 533d 1033 283e 589c d53d 989b 0dbe
00000240: 62a6 00be 9a6e 213e de3c 983d d841 21be
00000250: 73b8 04be 1ad5 a8bd 1d88 b7bd 632a 693c
00000260: a60d 06bd 1443 013e 187c 113e 2e40 59bd
00000270: fe4c af3d a396 b83c dd80 203e 4a1b 55be
00000280: 9a00 4a3e 64ed bc3d 7829 cabd da60 3d3e
00000290: 299a c23d 4f1d 9c3d cf5e 1e3e 8b43 423e
000002a0: da06 933d 6488 1cbd 01fd 59bb 05ee 16bd
000002b0: 8cc5 1eba 60af 883c 7ac2 e23d 29f9 083e
000002c0: f695 853d c2b1 a43c c2fd d23d c31f bebd
000002d0: 89cf 1a3e 90f4 1f3e fd95 313e 3ff7 3dbe
000002e0: de4f 193e a299 4dbd d13a 6ebd d948 1b3e
000002f0: 70b3 b53d 39cc 423e 604f 9abb e282 773d
00000300: 32d6 ea3d d3db 30be 95dd 17be e797 173e
00000310: d69f 403c 306c 3a3e fdf6 b7bd 7ab6 1e3e
00000320: f5ed eabd 9152 3e3e d7f8 c2bd 278c 8dbd
00000330: 0830 ca3d 4f2d c9bd 6920 213e 19ab 2c3e
00000340: 7079 143d 0399 43bc c436 403e b9d2 c43d
00000350: dec1 263d d624 773b ef6c 213e bd79 443e
00000360: 8c37 7bbd 131b f03d 1f13 f23d 6f49 0fbe
00000370: 86b7 0ebe 346e 513e 053d 8d3d 5700 40bc
00000380: e704 b2bc c4f9 0cbe eca9 91bc 7581 dd3d
00000390: 5654 353e 7c67 1b3e f09b acbc 7ebd afbd
000003a0: f8b0 a03d 40a2 00be 3a91 223d b7ef 7ebd
000003b0: 28af 373e 3d38 b03d 66b7 2bbe 0ce2 bdbd
000003c0: 4fcc 0f3e 601b e13d a6e8 ee3d 82f0 54bd
000003d0: c083 eb3d 1aa1 1e3e 348b 11be b53e e23d
000003e0: 7568 733d 84e8 27be 818d 88bd 6a93 e9bd
000003f0: 3bd9 b6bd 17b3 26be 4720 373e 2c4a 23bd
0.16369726 -0.21520072 -0.056484632 -0.07670185 -0.11796751 -0.1666814 -0.0110927615 -0.21404408
-0.045503933 -0.13755073 0.0932964 -0.05026276 0.019287683 0.14221093 0.03451143 0.12754028
0.019440355 0.17975245 -0.20154393 0.021738626 0.073533334 -0.11247934 0.18415059 0.073671505
-0.01070895 0.12780516 -0.02215308 0.16177405 -0.14319612 -0.15397464 -0.16314135 -0.029052386
-0.17102721 0.14155361 -0.13571282 0.12884383 -0.065394334 -0.11373296 -0.07834501 -0.10025271
-0.18777333 -0.018427532 0.10057596 0.16649598 0.057255983 -0.17841315 -0.10538933 -0.028094903
-0.1449959 0.21344897 0.032193594 0.15332079 0.10764387 0.007526322 0.07492256 0.20205495
-0.20870835 0.044391908 0.12810656 -0.11832076 -0.03816943 0.0022524667 0.110316426 -0.05570534
0.035767067 -0.08674822 -0.008840358 -0.15854011 0.022743676 0.1135358 0.13191618 0.19658668
0.12983441 -0.120268516 -0.021402411 -0.08227106 0.018819418 -0.038492836 -0.104281045 0.055794694
-0.18503931 0.14955565 -0.17157733 0.006962738 0.089585416 0.20497745 -0.1495032 0.13234225
0.12998652 -0.05325491 -0.0064923693 -0.12287353 0.1504374 -0.020564962 -0.007991868 0.089687444
-0.13536318 0.044756975 0.18187623 -0.061175667 0.19277275 -0.09793534 -0.18894123 0.08691282
-0.14019582 0.10357579 0.16106313 0.09151522 0.03385474 -0.19113536 -0.014810994 0.088650875
0.11492716 -0.069806404 0.1361076 0.045230377 -0.058016617 -0.19656204 0.031821974 -0.19131558
0.15850778 -0.15223853 0.13591774 0.18099818 0.037200637 0.05488841 -0.18920456 -0.1458282
-0.076739654 -0.105543315 -0.13264273 -0.19809842 0.07724135 0.13086116 0.20219004 -0.06598837
0.040590513 -0.098869145 0.14245534 0.17248772 0.051747303 0.16425729 0.10430211 -0.13828886
-0.1256347 0.15764847 0.074334845 -0.15747774 -0.12960987 -0.08243771 -0.089615084 0.014231297
-0.03272786 0.12623245 0.14207494 -0.053039722 0.08559607 0.022532767 0.15674157 -0.20811191
0.19726792 0.09224966 -0.09871191 0.18493977 0.0950206 0.07622778 0.15465854 0.18971078
0.07179041 -0.03821601 -0.0033262374 -0.036848087 -0.00060566585 0.016685188 0.1107225 0.13376297
0.065227434 0.020104293 0.10302307 -0.09283402 0.15118231 0.15620637 0.17342372 -0.18551348
0.14971873 -0.050195344 -0.05816156 0.15164508 0.088721156 0.19023217 -0.0047091693 0.060427554
0.11466636 -0.17271356 -0.1483062 0.1480404 0.011756858 0.18205333 -0.08982656 0.15499297
-0.11471168 0.18586184 -0.09520119 -0.069114976 0.098724425 -0.09823095 0.1573502 0.16862144
0.036248624 -0.011938336 0.18770891 0.09610505 0.04071223 0.0037711165 0.15764211 0.19187064
-0.06133227 0.11723914 0.11820053 -0.13992856 -0.13937196 0.20452195 0.06896404 -0.011718831
-0.021730853 -0.13767153 -0.01778122 0.108157076 0.17707953 0.15176195 -0.02107045 -0.08581065
0.07846254 -0.12561893 0.03968928 -0.06224033 0.1793791 0.086044766 -0.1676918 -0.09271631
0.14042781 0.109915495 0.11665468 -0.05198718 0.11499739 0.15491143 -0.14213258 0.11047117
0.05942579 -0.16397291 -0.06667615 -0.1140507 -0.08928152 -0.16279255 0.17883407 -0.039865658

sequential/dense_1/MatMul f4 [64, 128]
00000000: 5b44 a8bd 2505 cc3c cb60 adbd 341f 103e
00000010: 99f6 08be c9f4 2cbe ee60 143e b8e6 38be
00000020: 861c 983d 867b 003e 8129 9abd fc93 01be
00000030: db74 fc3d 798a 963c 7bb9 38be 22d2 0dbb
00000040: d033 ff3a ef44 10be 09f6 123e ad6d 03bc
00000050: d433 453c 6b0b 9cbc ab9e 72bd 7e88 a43d
00000060: d7a2 6a3d 2ae9 a7bb 478c 59ba 11f9 49bd
00000070: a30d 0dbe 471d 023e 8b89 13be 8e3c 7c3d
00000080: 19f2 1f3e 1d1c 23bd d5a7 923a 9fc2 883d
00000090: 9e7e 06be 34ac 33be 32fc cc3d ad94 cf3d
000000a0: 401c 62bd 2481 373d 5959 053e ea91 043e
000000b0: 1a2e 1ebe 498b 183e c833 3f3c d1dd 003e
000000c0: 777e c03c d6e6 9dbd 40e5 2ebe 8c7a 00be
000000d0: af8a 6a3c 5a98 6abd 6e48 2fbd c9ae 3bbd
000000e0: 06f3 3e3d 0151 b9bd c293 15be 546e da3d
000000f0: d613 2bbe d20e f6bd a90c 08be b254 013e
00000100: f966 38bd 5345 dfbb ba0d eb3b b4ec ec3d
00000110: 86df f03c 3549 0f3e 6d32 123e 42d7 69bc
00000120: e181 1bbe 8923 e5bc 6757 a93d ff59 debd
00000130: bb32 033b c498 9e3d 557a d8bd 753b a0bc
00000140: d72a 1ebe f345 acbc 0824 26be 793d b2bd
00000150: 9d96 d03d b104 023e 8958 c3bd b0d5 cc3d
00000160: 8745 dcbd 5d71 393d 1d46 d6bd 3f71 82bd
00000170: 8718 b5bd a050 a23c b9a4 38be 577f c6bd
00000180: d331 503d fd5a 05be 851d bbbc 0955 563c
00000190: ab86 193e 39a4 15be dc7a 57bd c3cf 163e
000001a0: d89b 13be f13f 473d 6368 2ebd 8119 f13d
000001b0: 1f5a ddbd 7d5c 64ba 63fc 223e 94a4 ac3d
000001c0: 0086 ff3d 1008 60bd d944 dfbd 8b7e 42bc
000001d0: 1a64 68bd 7b73 97bd e617 2b3d f273 26be
000001e0: d26b c6bd 6f12 ee3d b393 d73d a086 033e
000001f0: 04b1 41be 1070 fdbd 8dd2 82bd 92be da3d
00000200: a383 a7bd 4203 163d e7ed 17be b333 1bbe
00000210: 86e1 87bd 08a9 b63d 0fbf 9f3d 1e59 d13d
00000220: 61ee b43d 06fe 19be 90a5 3d3e 80c0 0d3e
00000230: 0141 4fbd 9e1a 933d 27d9 1f3e 2594 e23d
00000240: bc17 153e d654 d03c bd13 00be feda 273e
00000250: 0cf6 6d3c 892c 85bd 21d6 bebc 893d debd
00000260: 5911 d33d a35b f5bc 5fe3 dc3b ba13 08be
00000270: a6e8 dabd fe4d 1ebe 19a9 3bbe 652f 06be
00000280: 0a3d 11be a0b6 aabc 9386 9a3d 13ca 143e
00000290: dd43 613d eec2 d23c 7086 b5bd c828 0e3e
000002a0: 5781 e7bd 6ebf 62bd 3c0c 16be 2af0 f93d
000002b0: 8ce0 c6bd 2cc3 253c 7c50 2abe 5f4c 3bbd
000002c0: 2147 653d a385 283b 7de1 9abd 8435 1cbd
000002d0: bdb4 133e edc0 2cbe 7725 1e3e 4e8f 2e3e
000002e0: b217 4cbd e8e8 8e3d 3f81 d2bc 1cb8 0a3e
000002f0: 307f f23d bbbf 26be 47f8 42be 4072 003d
00000300: 6dea c4bd 6691 ba3d f561 0cbe fd3b 053e
00000310: 4900 3fbe c8e6 a63d 26d9 903d 0681 00bc
00000320: dc0f 08be 3b88 ad3d 0389 a03d 24dd 2fbe
00000330: 6cb4 cdbc a650 1c3e 44e0 833d d327 d2bd
00000340: 35cb 2bbe c2c6 243b 7fa2 163e 958e 8c3d
00000350: 5634 133e 7a7b 0a3e ccf9 023e ced0 b7bd
00000360: 8e63 82bd 0423 d3bd 5020 2fbe 098a 6cbd
00000370: 7c84 96bc fd3d 173e 7291 153e 0eb6 dc3d
00000380: 6f52 4bbd 6651 81bd 518f e53c 9426 9fbc
00000390: 40e2 43bd cbd6 2b3e 4321 253c d52e c1bd
000003a0: 8abc d6bd 9bef 03be 334f 21bd 3ed9 3c3e
000003b0: d49d b83d 3002 223e f34f 40be 5a6a 133e
000003c0: 8941 213d 7860 c9bd 48a6 c63c a0df ce3c
000003d0: ee4e a43d d402 38bd 3b2e 2cbe c400 1a3e
000003e0: 4679 b7bd 44c7 c9bc 8f7d 0cbe b8b3 733d
000003f0: df87 d73d 2178 34be 6978 08bd 93ae ecbd
-0.08216163 0.024904797 -0.084657274 0.14074403 -0.1337532 -0.16890253 0.144901 -0.18056762
0.074273154 0.1254712 -0.075274475 -0.12654108 0.12326976 0.018376576 -0.18039505 -0.0021640141
0.0019470397 -0.14088796 0.14351667 -0.008021754 0.012036283 -0.019048413 -0.05923335 0.08033846
0.057284202 -0.005124231 -0.0008298796 -0.049309794 -0.13774733 0.12706481 -0.14407937 0.061581187
0.15619697 -0.039821733 0.0011188934 0.06677746 -0.13134238 -0.17546159 0.1000904 0.101357795
-0.055202723 0.044800892 0.13022365 0.12946287 -0.15447274 0.14896883 0.01167006 0.12584616
0.023497803 -0.07710044 -0.1707964 -0.12546748 0.014315291 -0.0572742 -0.042793684 -0.045820985
0.046618484 -0.090486534 -0.14607146 0.10665575 -0.16706786 -0.120145455 -0.1328608 0.12629965
-0.045020077 -0.006813684 0.007173267 0.11568585 0.02940346 0.1399277 0.14277048 -0.014272513
-0.15186264 -0.027971046 0.08268624 -0.10857009 0.0020019251 0.077439815 -0.10570208 -0.019559601
-0.1544603 -0.021029448 -0.16224682 -0.08703131 0.10184977 0.12697102 -0.09538371 0.10001695
-0.10755449 0.045274127 -0.10462592 -0.06369256 -0.08842569 0.019813836 -0.18031587 -0.09692257
0.050828766 -0.1302299 -0.022841224 0.013081797 0.14992778 -0.14613427 -0.052607402 0.14727692
-0.14414918 0.048644964 -0.04258002 0.117724426 -0.10808205 -0.00087112916 0.1591659 0.08429828
0.1247673 -0.05469519 -0.109018035 -0.0118709905 -0.05673609 -0.07395073 0.04177084 -0.16255167
-0.09688534 0.1162461 0.10526218 0.12844324 -0.18915182 -0.1237489 -0.063878156 0.1068088
-0.081794046 0.0366242 -0.14836846 -0.1515644 -0.06634812 0.08918959 0.078001134 0.10222076
0.0883453 -0.15038309 0.18520188 0.13842964 -0.050599102 0.07182811 0.15610181 0.110634126
0.14559835 0.025431078 -0.1250753 0.16392133 0.014523994 -0.06502635 -0.023295464 -0.10851581
0.10306043 -0.029950922 0.006740972 -0.13288775 -0.106889054 -0.15459439 -0.18326224 -0.13104017
-0.14183441 -0.020839036 0.07545199 0.1453021 0.05499636 0.025727715 -0.088635325 0.13882744
-0.113039665 -0.055358343 -0.14653105 0.12204011 -0.09710798 0.010117333 -0.16632265 -0.04572713
0.055976037 0.002571442 -0.0756254 -0.038136974 0.14424415 -0.1687047 0.15443979 0.17046854
-0.049827285 0.06978017 -0.025696395 0.13546795 0.11840665 -0.16284077 -0.19040023 0.031358957
-0.09615026 0.09109764 -0.13709243 0.13011165 -0.18652453 0.08149487 0.07072668 -0.007843262
-0.132873 0.084732495 0.07838633 -0.17174202 -0.025110446 0.1526514 0.0643926 -0.10261502
-0.16776736 0.0025142883 0.14710425 0.06863133 0.14375433 0.13523665 0.12790602 -0.08975373
-0.06366645 -0.10309413 -0.1710217 -0.057748828 -0.01837372 0.1476974 0.14606264 0.10776912
-0.04963916 -0.06314354 0.02802244 -0.019427575 -0.04782319 0.16781156 0.010078731 -0.094327606
-0.1048518 -0.12884371 -0.03938217 0.18442246 0.09014478 0.15821147 -0.18780498 0.14396039
0.03936914 -0.09832853 0.024249211 0.025253117 0.08022867 -0.044924572 -0.1681451 0.15039355
-0.08958678 -0.02463115 -0.13719772 0.059497565 0.10523962 -0.1762395 -0.033317957 -0.11556735

sequential/dense_2/MatMul f4 [1, 64]
00000000: 79e7 8f3e 05fa 783e cbde 5c3e 5701 843e
00000010: 8ede 213d cc94 f9bd d474 0cbd da96 7f3e
00000020: ce75 b93d d18d 68be d2c9 503e 7a0b 33be
00000030: 84ce 39be f8be c63d 64b7 00be 97e4 713e
00000040: 347d 37be 0f72 d4bd 8d53 973e 2604 48be
00000050: 0bda 07be 6658 843d bbdc 50be e444 8e3d
00000060: 0eba 003e dbc7 0fbe 6a67 14be 7b8c 863e
00000070: 31cc b6bd e6b7 bdbd 4c73 523e 34cd 85be
00000080: 52e2 013d deac 4dbe 7398 6bbe 1eac 913c
00000090: e8d7 703d eea1 e7bc 9ed9 373e 25d7 4e3e
000000a0: 1a7d f43d 177f a03e f7a5 98be 3ff5 943e
000000b0: 972d ba3d b2ab b73b 2727 4cbe fe08 9bbe
000000c0: 7597 863e 2225 853e 12be 79be 1439 e93d
000000d0: 0b6f 8abe 34e3 b43d 409e 7b3e abd7 95be
000000e0: 191c 603e e296 e53d 6d74 943e 39b9 c73d
000000f0: 6b1f 87bc 1881 c1bd 0af4 c5bd 44a8 933e
0.28106287 0.24314125 0.21569364 0.25782272 0.039518885 -0.12186584 -0.034291103 0.24959889
0.090556726 -0.22710349 0.20389488 -0.17484847 -0.18145186 0.09704393 -0.12569958 0.23622356
-0.17918855 -0.103733175 0.29555932 -0.19532833 -0.1326677 0.06462173 -0.20396702 0.069467336
0.12570974 -0.14041083 -0.14492574 0.26279053 -0.08925665 -0.092635915 0.20551795 -0.2613312
0.031709976 -0.20085475 -0.23007374 0.017782267 0.058799654 -0.028275456 0.17954108 0.20199259
0.11937924 0.31346962 -0.2981412 0.29093358 0.09090727 0.0056051845 -0.1993681 -0.30280298
0.26287428 0.26004893 -0.24388912 0.1138784 -0.27037844 0.08832398 0.24572086 -0.29266104
0.21885718 0.11210419 0.28995076 0.09752125 -0.016494473 -0.09448451 -0.096656874 0.28839314
