kerasModel.tflite (tflite, 46628 bytes, 5 tensors)

sequential_1/dense_4/BiasAdd/ReadVariableOp f4 [64]
0.03197569 -0.03397301 -0.0064594955 0.0075204344 -0.0028953708 0.021301327 -0.018756837 0.007348787
0.02257955 -0.0069323448 0.015434535 0.0121284295 0.019242316 -0.00055033277 0.0019354356 -0.010391262
-0.011076627 0.0084555745 -0.018210012 0.0015618367 0.0034237667 0.010559317 0.019514818 0.030924514
-0.0012304769 -0.025604518 -0.01603478 0.026909357 0.016069192 -0.00666989 0.017670397 0.015240904
-0.002097877 -0.0058702934 0.003182658 -0.015838375 -0.024834158 0.011542694 -0.017860701 0.023857467
-0.02002807 -0.011339636 -0.020997543 0.007996983 0.025448393 0.017676374 0.031745702 -0.014311806
0.016125465 0.0011709566 0.009761009 -0.016606953 0.008073492 0.020177705 -0.0010425746 -0.0035766275
0.015715038 0.0001661511 0.019756602 0.02011163 0.009434047 0.011801123 0.019511497 -0.0015201678
00000000: f1f8 023d 4827 0bbd 2daa d3bb fa6d f63b
00000010: 43c0 3dbb 1f80 ae3c f0a7 99bc 18ce f03b
00000020: c0f8 b83c b928 e3bb 22e1 7c3c 52b6 463c
00000030: 10a2 9d3c 3544 10ba 71ae fd3a 1d40 2abc
00000040: be7a 35bc 4089 0a3c 2a2d 95bc 8bb6 cc3a
00000050: 4661 603b fc00 2d3c 8add 9f3c 6855 fd3c
00000060: f447 a1ba 91c0 d1bc 5f5b 83bc 0371 dc3c
00000070: 8aa3 833c 188f dabb 82c1 903c fcb4 793c
00000080: 897c 09bb 975b c0bb 2494 503b 7bbf 81bc
00000090: 0171 cbbc 911d 3d3c 9b50 92bc bc70 c33c
000000a0: e811 a4bc e1c9 39bc 0a03 acbc c705 033c
000000b0: 2679 d03c 0bce 903c c807 023d 117c 6abc
000000c0: 8d19 843c c97a 993a a4ec 1f3c 4e0b 88bc
000000d0: ae46 043c b74b a53c 00a7 88ba da65 6abb
000000e0: d3bc 803c d938 2e39 99d8 a13c 25c1 a43c
000000f0: 4391 1a3c 7f59 413c 93d6 9f3c 5e40 c7ba

sequential_1/dense_3/BiasAdd/ReadVariableOp f4 [128]
0.0021158587 -0.0058050836 0.0055330247 -0.0040628007 0.0001650588 0.03687712 -0.024697907 0.017551564
0.005976788 0.014365276 -0.0025964214 0.020903826 -0.0078527285 -0.01452273 0.0191733 0.0039349
0.011264484 0.009037067 -0.016027031 -0.0020857302 0.015489574 0.005299257 -0.00283289 -0.0019490423
-0.0030050608 -0.0021114019 0.01362032 0.0020972595 0.003640583 0.010031286 0.0015694996 0.0069262027
-0.001174383 0.004467288 -0.012579876 -0.022161372 0.016625294 0.0062576947 0.006103589 -0.0062077637
0.0018773929 -0.014128931 0.018638283 -0.014469523 0.0025848595 0.01976807 -0.0024856979 -0.0038703668
0.019435715 -0.00063478615 -0.0060150903 0.012084771 -0.020351278 0.024079705 0.017542368 0.0011896204
0.019402694 0.0033033271 0.00012599588 0.00026723012 0.008440048 -0.0048108264 0.01094469 0.004256314
0.0051210695 0.0069372267 0.03335516 -0.0158674 0.0029281182 0.028135635 0.005421449 -0.0018993414
-0.006876576 -0.010619266 0.002822283 -0.0017685419 -0.0055768588 0.028488707 -0.008947761 -0.009682548
0.024576606 -0.004303081 0.0008394875 0.0031721974 0.0004205987 -0.013405121 0.0035608923 -0.010741334
0.016806113 -0.0068393922 -0.014269004 -0.0052455924 0.01192451 -0.01739263 0.0076226857 -0.020551167
0.036146723 0.0006067684 0.007022338 0.002627815 -0.016011506 0.00056023896 0.0034349905 0.012661485
-0.004944282 0.022300674 0.039649762 0.02799857 0.012898846 0.0168997 0.0031017105 -0.005985613
0.0015320629 -0.0062404047 0.01153828 -0.0016038965 0.019927194 -0.013237948 -0.014113934 0.0040765884
0.00015956309 0.013053975 -0.015695257 0.03592721 0.012452099 0.014359994 0.01294899 0.006622238
00000000: 38aa 0a3b 9238 bebb 604e b53b 3e21 85bb
00000010: a213 2d39 770c 173d 4453 cabc 4cc8 8f3c
00000020: eed8 c33b 565c 6b3c b928 2abb 803e ab3c
00000030: bba8 00bc bff0 6dbc 5311 9d3c 55f0 803b
00000040: ac8e 383c 3510 143c 1f4b 83bc bfb0 08bb
00000050: fbc7 7d3c 64a5 ad3b 02a8 39bb 0277 ffba
00000060: 8ef0 44bb 725f 0abb c327 5f3c 2d72 093b
00000070: d996 6e3b 435a 243c abb7 cd3a 33f5 e23b
00000080: c1ed 99ba 5462 923b d31b 4ebc c48b b5bc
00000090: c531 883c 590d cd3b 9e00 c83b 7f6a cbbb
000000a0: da12 f63a 087d 67bc 50af 983c 9411 6dbc
000000b0: bf66 293b a6f0 a13c 17e7 22bb fba5 7dbb
000000c0: a637 9f3c c767 26ba 3c1a c5bb 34ff 453c
000000d0: b9b7 a6bc cd42 c53c 03b5 8f3c 09ed 9b3a
000000e0: 66f2 9e3c a27c 583b c31d 0439 051b 8c39
000000f0: 2148 0a3c 23a4 9dbb 5b51 333c 8d78 8b3b
00000100: a5ce a73b ad51 e33b 6c9f 083d 5afc 81bc
00000110: ace5 3f3b b47c e63c 69a6 b13b 52f3 f8ba
00000120: e754 e1bb 6efc 2dbc 0df6 383b 6bce e7ba
00000130: 15be b6bb 2661 e93c a199 12bc 8da3 1ebc
00000140: e154 c93c dc00 8dbb 0d11 5c3a a4e4 4f3b
00000150: cd83 dc39 27a1 5bbc dc5d 693b 6cfc 2fbc
00000160: f9ac 893c fb1c e0bb 8ac8 69bc 38e3 abbb
00000170: 055f 433c fd7a 8ebc b9c7 f93b ec5a a8bc
00000180: 960e 143d 8a0f 1f3a a41b e63b 6b37 2c3b
00000190: 902a 83bc 00dd 123a 941d 613b 1e72 4f3c
000001a0: a503 a2bb e7af b63c ca67 223d 425d e53c
000001b0: ae55 533c 3d71 8a3c 1146 4b3b f622 c4bb
000001c0: 80cf c83a 4f7c ccbb 0e0b 3d3c d639 d2ba
000001d0: 5b3e a33c fae3 58bc 213e 67bc e794 853b
000001e0: 6450 2739 57e0 553c 5793 80bc 6928 133d
000001f0: e303 4c3c 2e46 6b3c 0028 543c 5cff d83b

sequential_1/dense_3/MatMul f4 [128, 21]
0.19366935 0.102183655 -0.013016542 -0.17113534 0.17011659 0.03346776 -0.022749841 -0.04701625
-0.21407996 0.15192848 0.19221613 -0.010355477 -0.06811541 0.18714269 0.17658223 0.14032817
-0.06333601 0.1689004 -0.10512778 0.112160094 0.060494352 -0.19708753 0.0065846285 -0.13211194
-0.09179936 0.016943142 -0.17237614 0.04784474 -0.102480255 0.100133814 -0.03817769 0.17466038
0.055832434 -0.1287142 0.061967548 -0.034865607 0.05317832 0.050818503 -0.16326225 -0.18866998
0.0028779914 -0.18332112 0.19152813 -0.06596414 0.13689384 -0.043353293 -0.14715637 0.15188234
0.18317007 -0.057074323 0.08527204 -0.17473789 0.116353534 -0.12249895 -0.10087202 0.044877253
0.05204351 0.15496708 0.046453144 -0.1941267 -0.05730186 -0.053785577 0.07607774 0.07759883
0.0024887717 0.17965521 0.17700985 -0.14315334 -0.12791038 -0.07738468 0.18607001 -0.10232252
-0.068134345 0.08047579 0.014258247 0.18643756 -0.12809823 0.16192287 -0.009661788 -0.065374106
0.18237601 -0.1220149 -0.16030884 0.03866505 -0.16967613 0.17416796 -0.008883528 -0.018129796
-0.13902345 0.15281436 -0.05117401 -0.064368956 -0.16116099 -0.08720991 0.19272755 -0.04016308
0.03395246 -0.033233605 -0.0043137656 -0.034893807 0.14288984 0.17815375 0.0591496 -0.17703658
0.010009575 -0.076314345 -0.20238349 0.02126493 0.089576535 0.13642669 -0.20434898 0.15234925
0.15891895 0.16131172 0.15314728 0.14076225 -0.04414596 -0.16152258 -0.05911017 -0.050375916
-0.15353738 0.0814074 -0.19617046 0.13568322 -0.14199081 0.0122815 -0.12959811 -0.07461203
0.026461586 0.061248776 0.08414251 -0.16749077 0.19538967 0.11035925 0.12172584 -0.023176445
0.11092433 0.21159527 -0.13634115 -0.10461586 0.10231808 0.03233354 -0.106367365 0.13608977
0.032369673 0.027406009 -0.14088558 -0.08408804 -0.06929247 -0.11910699 0.094473206 -0.19720206
-0.06972088 0.04014219 0.01612843 0.19244249 0.06754863 -0.19485399 -0.09221675 0.15164341
-0.099727914 0.035501357 -0.11372589 0.13593091 0.21608523 -0.055445027 -0.031794768 0.16265403
0.013248777 0.066639654 0.21101473 0.001522302 -0.027526643 0.040708557 -0.09220277 0.01523351
0.16059625 -0.14297345 -0.01023843 0.07621127 -0.07428763 0.0049598413 0.13178144 0.09693437
-0.0088457735 0.09255307 0.16993108 0.15780024 -0.16425186 -0.115805045 -0.081539124 -0.10116283
-0.12317785 0.15396729 -0.20796776 -0.03974635 0.029171692 -0.21760409 -0.06967106 0.17748219
0.020594714 0.03968074 -0.08025052 0.018660381 -0.18929085 0.012375153 0.0072876485 -0.14409722
0.12619266 -0.09338903 0.12103575 -0.02411798 -0.11971743 0.124031544 -0.079620875 -0.00968311
0.03903888 -0.19831699 0.017435491 0.11626558 -0.060479555 0.0391836 0.06269274 -0.12402322
-0.16420372 0.13414459 0.14220114 0.07051612 0.10735722 -0.06454574 0.033662565 -0.029638506
-0.04353514 -0.0025773712 0.009859887 0.095883235 -0.1941535 -0.1811827 0.048137624 0.090611294
-0.020655138 -0.034499526 0.10474918 -0.19813286 0.10634261 0.14527299 -0.117756665 -0.04734906
0.03187142 -0.013583103 -0.15400504 0.13156559 0.061201192 -0.033050943 0.17524737 -0.06357732
00000000: 4251 463e aa45 d13d 5643 55bc 1a3e 2fbe
00000010: 0b33 2e3e 7d15 093d e05d babc 1d94 40bd
00000020: c737 5bbe 2493 1b3e 4ed4 443e 05aa 29bc
00000030: 1880 8bbd 55a2 3f3e f9d1 343e 30b2 0f3e
00000040: 4fb6 81bd 3af4 2c3e 3c4d d7bd 31b4 e53d
00000050: edc8 773d 50d1 49be dec3 d73b 5a48 07be
00000060: 4e01 bcbd 58cc 8a3c 5f83 30be d9f8 433d
00000070: 2be1 d1bd f512 cd3d 3660 1cbd 2cda 323e
00000080: 8db0 643d a8cd 03be afd1 7d3d 3dcf 0ebd
00000090: 83d1 593d 1027 503d 382e 27be b432 41be
000000a0: af9c 3c3b 88b8 3bbe f31f 443e 3518 87bd
000000b0: e62d 0c3e 3993 31bd 29b0 16be 0b87 1b3e
000000c0: ef90 3b3e c4c6 69bd 1ba3 ae3d 7dee 32be
000000d0: c34a ee3d bbe0 fabd fd95 cebd 36d1 373d
000000e0: 932b 553d b1af 1e3e a745 3e3d 26c9 46be
000000f0: 5bb5 6abd 444e 5cbd a5ce 9b3d 23ec 9e3d
00000100: a91a 233b 89f7 373e 1242 353e ca96 12be
00000110: f0fa 02be dc7b 9ebd 2389 3e3e 788e d1bd
00000120: 058a 8bbd 7ed0 a43d 6c9b 693c 7de9 3e3e
00000130: 2f2c 03be 1ccf 253e 7a4c 1ebc dce2 85bd
00000140: c7c0 3a3e f3e2 f9bd 0028 24be 3e5f 1e3d
00000150: 94bf 2dbe 1659 323e 388c 11bc f084 94bc
00000160: 2a5c 0ebe 5e7b 1c3e d79b 51bd dfd3 83bd
00000170: 6307 25be 1c9b b2bd 5f5a 453e 0b82 24bd
00000180: bc11 0b3d f61f 08bd 7d5a 8dbb cfec 0ebd
00000190: b751 123e f06d 363e da46 723d 1449 35be
000001a0: 33ff 233c b24a 9cbd 9e3d 4fbe ca33 ae3c
000001b0: e773 b73d 70b3 0b3e dc40 51be 7101 1c3e
000001c0: a6bb 223e e62e 253e a4d2 1c3e fb23 103e
000001d0: 65d2 34bd 2d66 25be 811d 72bd fa56 4ebd
000001e0: e738 1dbe ecb8 a63d e9e0 48be 8bf0 0a3e
000001f0: 0a66 11be 5838 493c 5eb5 04be 31ce 98bd
00000200: f8c5 d83c ffdf 7a3d e952 ac3d b382 2bbe
00000210: 3b14 483e 0804 e23d 664b f93d 87dc bdbc
00000220: 4c2c e33d 6eac 583e 049d 0bbe d740 d6bd
00000230: 248c d13d 2d70 043d 22d7 d9bd 1e5b 0b3e
00000240: 1096 043d 9182 e03c 4f44 10be 5a36 acbd
00000250: 36e9 8dbd 5eee f3bd 2b7b c13d 56ef 49be
00000260: d2c9 8ebd 236c 243d c51f 843c a50f 453e
00000270: f056 8a3d ce87 47be 23dc bcbd 6948 1b3e
00000280: 263e ccbd df69 113d 1fe9 e8bd 7931 0b3e
00000290: 7245 5d3e 531a 63bd 3b3b 02bd c78e 263e
000002a0: 6611 593c 5f7a 883d 3f14 583e fb87 c73a
000002b0: 8e7f e1bc 04be 263d ced4 bcbd f995 793c
000002c0: 5873 243e a267 12be 17bf 27bc a814 9c3d
000002d0: 1d24 98bd 2a86 a23b b7f1 063e 8785 c63d
000002e0: dded 10bc 778c bd3d 6a02 2e3e 6396 213e
000002f0: a431 28be 322b edbd fcfd a6bd 752e cfbd
00000300: ab44 fcbd 9aa9 1d3e 80f5 54be 12cd 22bd
00000310: 79f9 ee3c 9bd3 5ebe b3af 8ebd e4bd 353e
00000320: 3fb6 a83c 4688 223d 625a a4bd a8dd 983c
00000330: 76d5 41be 27c1 4a3c 3acd ee3b 398e 13be
00000340: a638 013e bf42 bfbd 97e1 f73d 1293 c5bc
00000350: 692e f5bd 4004 fe3d 4510 a3bd e8a5 1ebc
00000360: 3ce7 1f3d 9c13 4bbe e0d4 8e3c a61c ee3d
00000370: 69b9 77bd fc7e 203d 0d65 803d e3ff fdbd
00000380: 0525 28be 335d 093e 2d9d 113e c16a 903d
00000390: 1ade db3d 8f30 84bd c2e1 093d 74cc f2bc
000003a0: e751 32bd 1de9 28bb 5d8b 213c 6e5e c43d
000003b0: 2dd0 46be f587 39be f52b 453d 6a92 b93d
000003c0: f734 a9bc 604f 0dbd bd86 d63d 57e3 4abe
000003d0: 28ca d93d 71c2 143e 682a f1bd 17f1 41bd
000003e0: 9b8b 023d aa8b 5ebc 7fb3 1dbe 21b9 063e
000003f0: 1aae 7a3d 6d60 07bd 0c74 333e d334 82bd

sequential_1/dense_4/MatMul f4 [64, 128]
0.18097726 0.13480084 -0.009551535 -0.12617388 -0.018082917 -0.05756552 0.104708694 -0.08712522
-0.05876069 0.16825959 -0.060768887 -0.005885276 -0.1697326 -0.086753815 0.13916282 -0.009080047
0.021917779 -0.04197065 -0.112655684 -0.0058012423 -0.17251939 0.19267857 -0.15324861 -0.0426923
-0.119418696 -0.1506389 -0.11464065 0.14818023 -0.1296072 0.10418422 -0.0719844 -0.024723453
0.081372425 -0.08609044 0.004677889 0.16256908 -0.064833306 0.064834595 -0.08052307 -0.06642741
-0.04132271 0.100446165 0.12433426 0.056509476 0.018990953 -0.017727487 0.12628469 0.17339957
0.033482783 -0.012416652 -0.10130268 -0.062842555 0.10554996 0.046924476 -0.12920769 0.11866502
0.056079146 0.0057994295 0.04758363 0.008165556 0.18779978 0.08268411 -0.045125328 -0.0051913606
-0.09248284 -0.0008543006 0.089280955 -0.11980105 0.010377512 0.08812203 0.19323927 -0.04341988
0.101040184 -0.13645582 0.028222289 0.027892841 -0.005560876 0.16241947 -0.10662211 -0.024352772
0.14254032 0.15863672 0.0107275 0.07786968 0.17781049 0.17592292 -0.01986363 -0.13487747
0.051432204 0.030445268 0.14928833 0.05803404 -0.0015065327 -0.062107947 -0.08586037 0.06717515
-0.13618912 -0.07437342 0.17503132 0.13918643 -0.10187052 0.028389884 0.0058725365 0.087487265
0.12079635 0.0944812 0.19348878 -0.010306697 -0.1415263 0.13516389 -0.08505745 0.14550631
0.13860522 0.068258084 0.058389954 0.090519555 0.0010612258 0.13267072 0.07700317 -0.077095285
-0.11408234 0.00014418014 0.19300912 0.16818392 -0.09239433 0.10097007 -0.05885746 -0.03172527
-0.03319317 -0.027403755 -0.11698544 -0.11127166 -0.15531059 0.07865122 0.095574446 -0.14569367
0.061123036 -0.05167149 0.021152591 -0.17885008 0.081307344 -0.17612334 -0.002205842 -0.1514593
-0.12211883 -0.081083834 -0.028613606 -0.113196686 0.0027361023 -0.17648 -0.10929102 0.08107629
-0.048227143 -0.14532554 0.12988384 -0.038579326 -0.15480256 -0.11964924 -0.16445895 0.057706185
0.06775307 -0.074853435 -0.15105073 -0.04354477 -0.04604187 0.01635501 0.023508206 0.08965074
-0.057036575 0.056444716 -0.13494213 0.14933132 -0.16194884 -0.13296379 0.039886873 0.058716606
0.0012276904 0.14872143 -0.13613616 -0.1347164 0.1377341 0.011217111 -0.0005330881 -0.14625438
-0.11850677 0.16703153 0.07781575 -0.059351828 0.059647683 0.07312415 -0.07961599 0.10816219
-0.16371706 0.13297132 -0.07749608 0.15781097 -0.16115499 -0.09511379 -0.09412028 -0.062892094
0.12468576 -0.007010918 0.06462425 -0.18152456 -0.012317336 -0.07653892 -0.056033302 0.16108876
-0.14558437 -0.009093051 0.08893459 -0.09193562 0.078726634 -0.13648045 -0.061724067 0.15344973
-0.066753455 -0.1410343 0.07892809 0.14210053 0.049892668 -0.013697439 -0.03656821 0.09477772
0.03925214 -0.104068466 0.14412503 0.16878475 -0.03229831 0.080920145 0.03834573 0.081761576
0.0043241954 0.10359136 -0.14162381 0.10595172 0.0026272768 -0.14040066 -0.064444065 -0.056019794
0.11066037 0.016964335 -0.03967678 -0.16341233 0.15489459 0.13857415 -0.17334846 -0.009579841
-0.014740789 0.040032856 -0.04887607 0.0710489 -0.06893165 -0.07094403 -0.1378544 -0.04203148
00000000: 1a52 393e 3b09 0a3e 0b7e 1cbc ba33 01be
00000010: a022 94bc d3c9 6bbd 8371 d63d b56e b2bd
00000020: 0daf 70bd 3e4c 2c3e cce8 78bd 46d9 c0bb
00000030: 62ce 2dbe fcab b1bd b380 0e3e 7ac4 14bc
00000040: ea8c b33c 6be9 2bbd 06b8 e6bd 5918 bebb
00000050: eca8 30be 884d 453e 34ed 1cbe 1fde 2ebd
00000060: ca91 f4bd 1541 1abe b8c8 eabd 8fbc 173e
00000070: c0b7 04be 895e d53d 8f6c 93bd d788 cabc
00000080: 96a6 a63d 2f50 b0bd fa48 993b 8278 263e
00000090: 53c7 84bd 00c8 843d 48e9 a4bd 180b 88bd
000000a0: 0142 29bd b8b6 cd3d f6a2 fe3d 7b76 673d
000000b0: ea92 9b3c 3c39 91bc c650 013e a88f 313e
000000c0: 3e25 093d 376f 4bbc c877 cfbd 99b3 80bd
000000d0: 942a d83d e133 403d 054f 04be a506 f33d
000000e0: 3fb3 653d 2409 be3b 0de7 423d d3c8 053c
000000f0: 964e 403e 4956 a93d 56d5 38bd 4a1c aabb
00000100: a567 bdbd 25f3 5fba efd8 b63d 415a f5bd
00000110: 7106 2a3c 5379 b43d 84e0 453e 0bd9 31bd
00000120: 28ee ce3d 13bb 0bbe 6e32 e73c 877f e43c
00000130: 0238 b6bb 4a51 263e b15c dabd 777f c7bc
00000140: 17f6 113e aa71 223e 65c2 2f3c 247a 9f3d
00000150: f413 363e 2325 343e 0db9 a2bc 521d 0abe
00000160: 93aa 523d 5b68 f93c 0adf 183e 1ab5 6d3d
00000170: d976 c5ba e764 7ebd 90d7 afbd 2093 893d
00000180: 2975 0bbe 1751 98bd 693b 333e e386 0e3e
00000190: 7ea1 d0bd e791 e83c 686e c03b 862c b33d
000001a0: 1464 f73d 5c7f c13d ec21 463e 6cdd 28bc
000001b0: 45ec 10be 6768 0a3e 9a32 aebd 9bff 143e
000001c0: 87ee 0d3e e5ca 8b3d 4e2a 6f3d 5162 b93d
000001d0: d418 8b3a d5da 073e d7b3 9d3d 22e4 9dbd
000001e0: 00a4 e9bd 102f 1739 2fa4 453e 6838 2c3e
000001f0: 3d39 bdbd 65c9 ce3d 8514 71bd 5bf2 01bd
00000200: 90f5 07bd d77d e0bc 1096 efbd 65e2 e3bd
00000210: bd09 1fbe e413 a13d 89bc c33d b930 15be
00000220: 265c 7a3d 7ca5 53bd 3348 ad3c 7a24 37be
00000230: 7784 a63d ad59 34be e38f 10bb 2618 1bbe
00000240: 7019 fabd 480f a6bd 1567 eabc aad3 e7bd
00000250: 2e50 333b 2cb7 34be f8d3 dfbd 530b a63d
00000260: d389 45bd 38d0 14be 4500 053e 5b05 1ebd
00000270: 9084 1ebe a90a f5bd ed67 28be 525d 6c3d
00000280: 1fc2 8a3d c24c 99bd 0bad 1abe 005c 32bd
00000290: 6696 3cbd f1fa 853c 4894 c03c cf9a b73d
000002a0: 2f9f 69bd 9332 673d 452e 0abe 4fea 183e
000002b0: ebd5 25be a927 08be 6b60 233d d380 703d
000002c0: 74ea a03a 6e4a 183e 4767 0bbe 19f3 09be
000002d0: 2b0a 0d3e f9c7 373c f0be 0bba b5c3 15be
000002e0: adb3 f2bd 500a 2b3e dd5d 9f3d e71a 73bd
000002f0: 2151 743d 1dc2 953d b50d a3bd 2384 dd3d
00000300: 72a5 27be a229 083e 44b6 9ebd 3399 213e
00000310: d005 25be 05cb c2bd 22c2 c0bd 92cd 80bd
00000320: 3f5b ff3d d8bb e5bb b859 843d 93e1 39be
00000330: a7ce 49bc 70c0 9cbd 2d83 65bd 74f4 243e
00000340: 1214 15be 05fb 14bc 5723 b63d be48 bcbd
00000350: 6e3b a13d 88c1 0bbe 60d2 7cbd ed21 1d3e
00000360: 09b6 88bd 4c6b 10be 0da5 a13d cd82 113e
00000370: 415c 4c3d 396b 60bc 8cc8 15bd d21a c23d
00000380: dac6 203d d921 d5bd 8395 133e e9d5 2c3e
00000390: 3c4b 04bd 76b9 a53d 6a10 1d3d 9d72 a73d
000003a0: fbb1 8d3b b527 d43d d505 11be 37fd d83d
000003b0: 642e 2c3b 31c5 0fbe 40fb 83bd 0375 65bd
000003c0: e7a1 e23d caf8 8a3c 1f84 22bd 9055 27be
000003d0: b09c 1e3e 62e6 0d3e 4282 31be c4f4 1cbc
000003e0: 5a83 71bc 7ef9 233d 4632 48bd 1682 913d
000003f0: 092c 8dbd 1b4b 91bd b429 0dbe 3429 2cbd

sequential_1/dense_5/MatMul f4 [1, 64]
-0.11593716 0.11028083 0.048670515 -0.23895766 0.1318315 -0.28581104 -0.0006657941 -0.09744749
-0.29919904 0.087451115 -0.30493876 -0.2918862 -0.25334808 0.14746428 0.021819022 0.007897551
0.16224134 -0.15686956 0.21453853 -0.14856051 -0.17935535 -0.14657855 -0.020434758 -0.2244863
0.19971755 0.09880197 0.27011132 0.12072785 -0.098781176 0.16188003 -0.022595303 -0.058037095
0.19421554 0.29492104 -0.05175955 0.047922198 0.014390192 -0.021314545 0.18115038 -0.15277451
0.124748245 0.17307864 0.06989023 -0.012300889 -0.14349045 -0.07086816 -0.073891714 0.21077907
-0.27328533 0.1682119 -0.24745725 0.052617673 0.082308054 -0.31334043 0.06518359 0.2831041
-0.2217904 -0.078947395 -0.06351716 -0.05611176 -0.14202492 -0.008660894 -0.26387596 0.13984382
00000000: 7670 edbd eada e13d bc5a 473d 51b1 74be
00000010: d6fe 063e d355 92be b088 2eba 8d92 c7bd
00000020: 9e30 99be 9219 b33d ef20 9cbe 1c72 95be
00000030: d7b6 81be e000 173e cebd b23c bb64 013c
00000040: 9822 263e 6aa2 20be fdaf 5b3e 3f20 18be
00000050: eea8 37be b018 16be cb66 a7bc bddf 65be
00000060: c282 4c3e b058 ca3d 084c 8a3e 2a40 f73d
00000070: c94d cabd e1c3 253e c919 b9bc 4eb8 6dbd
00000080: 70e0 463e e4ff 963e d201 54bd 114a 443d
00000090: d7c4 6b3c d79b aebc 7c7f 393e ec70 1cbe
000000a0: 027c ff3d 873b 313e 9c22 8f3d ab89 49bc
000000b0: 29ef 12be 5323 91bd 8a54 97bd 78d6 573e
000000c0: 0eec 8bbe be3f 2c3e 6f65 7dbe a185 573d
000000d0: 2091 a83d 286e a0be f97e 853d 05f3 903e
000000e0: 061d 63be 2caf a1bd 4915 82bd 72d5 65bd
000000f0: fb6e 11be 6ce6 0dbc c01a 87be 3833 0f3e
